hnn_models/checkpoints/hnn_cr3bp_l1_local_v3.pt (torch, 538917 bytes, 9 tensors)

state_mean f4 [6]
0	0x3ead4be7	0.3384697
1	0x3ccaa2c7	0.024735821
2	0xbcbf2a0a	-0.023335475
3	0xbdd781c9	-0.105228014
4	0x3eb2cc8d	0.34921685
5	0xbc221872	-0.0098935235

state_std f4 [6]
0	0x3f097bc7	0.53704494
1	0x3eaaf769	0.33391884
2	0x3d4bccc8	0.04975584
3	0x3f42da61	0.7611447
4	0x3f5c0e10	0.8595896
5	0x3de4202c	0.11138949

net.0.weight f4 [256, 6]
0	0x3e94d993	0.29072246
1	0xbdd8d025	-0.105865754
2	0xbe4efb6e	-0.202131
3	0xbeb64f3f	-0.35607335
4	0xbef19f1a	-0.47191697
5	0x3c7442ed	0.0149085345
6	0x3e846c15	0.2586371
7	0x3e778393	0.24171285
8	0x3d9c13a3	0.07620933
9	0xbe70fbd6	-0.23533568
10	0x3e86683b	0.26251397
11	0xbe98efe3	-0.2987052
12	0x3e96cb81	0.29452136
13	0xbdc27509	-0.09494979
14	0x3eb4fb81	0.35348132
15	0x3e1ec008	0.15502942
16	0x3eb0ce0d	0.34532204
17	0x3e4516eb	0.19247024
18	0x3f2c93e6	0.67413175
19	0xbe4ed349	-0.20197786
20	0x3e0b5dcb	0.13609998
21	0x3b3b5ccc	0.0028589247
22	0x3d78e21a	0.060762502
23	0xbcc4a2a8	-0.024003342
24	0x3eed66bf	0.46367452
25	0xbe86a17a	-0.26295072
26	0x3e8728aa	0.26398212
27	0xbdb28ccb	-0.087182604
28	0x3ed17e68	0.40916753
29	0x3e48288c	0.19546717
30	0x3f071077	0.527595
31	0xbe789559	-0.24275722
32	0x3e8e4153	0.27784213
33	0x3dc546be	0.096326336
34	0x3cc21bf7	0.023694975
35	0x3d939c1c	0.0720751
36	0x3e0fac7c	0.14030641
37	0x3ed6a23f	0.4192066
38	0xbe965b00	-0.29366302
39	0xbebddc09	-0.37081936
40	0x3e9b64fd	0.30350485
41	0xbec645f0	-0.38725233
42	0xbead7f6e	-0.33886284
43	0x3eea3dc2	0.45750242
44	0x3e93d9d3	0.28877124
45	0x3e4b69c9	0.19864573
46	0xbcad41f7	-0.021149619
47	0x3daf0801	0.085464485
48	0xbed9ad85	-0.42515197
49	0x3ec348d2	0.38141495
50	0x3ebfeea7	0.37486765
51	0xbcaa620a	-0.020798702
52	0xbdcb37da	-0.09922762
53	0xbe672263	-0.22571711
54	0xbe9663ba	-0.2937296
55	0x3e595e0b	0.21227281
56	0xbee40134	-0.44532168
57	0xbd5e3984	-0.05425407
58	0x3e5b0203	0.21387486
59	0xbe5792ef	-0.21052144
60	0x3f28cc95	0.6593717
61	0xbe332c4a	-0.17497364
62	0x3ea6f7ca	0.32610923
63	0x3e706bf7	0.23478685
64	0xbdf84a74	-0.12123576
65	0xbc8a9105	-0.016914854
66	0xbf14e2a6	-0.5815834
67	0xbf324fbc	-0.69652915
68	0xbb60bf5b	-0.0034293744
69	0xbdcd2997	-0.10017698
70	0x3bd63f4a	0.0065383064
71	0xbd299072	-0.04139752
72	0x3e202b02	0.15641406
73	0xbe5e1f54	-0.21691638
74	0xbe1bebd2	-0.15226677
75	0xbe99b1b3	-0.30018386
76	0xbe933f9e	-0.28759474
77	0x3e17032e	0.14747307
78	0xbd918ed0	-0.071073174
79	0x3df4d6d6	0.11955039
80	0x3ec26994	0.37971175
81	0xbdde7555	-0.10862223
82	0x3eb4e238	0.3532884
83	0xbe26d419	-0.16291846
84	0x3e88adab	0.26694998
85	0xbe097abf	-0.1342573
86	0xbe7e165f	-0.24813221
87	0x3e2aab7b	0.16666977
88	0xbe7858b1	-0.24252583
89	0xbe270bf9	-0.16313161
90	0xbea49759	-0.3214672
91	0x3e24b810	0.1608584
92	0xbe0e21a0	-0.13880014
93	0xbe96bdc7	-0.29441664
94	0x3e013180	0.12616539
95	0xbe5b5bcb	-0.21421735
96	0x3e8ea03f	0.27856633
97	0xbdd322f1	-0.10309399
98	0x3cffc7c2	0.031223182
99	0x3de839fb	0.11339184
100	0x3e357402	0.17720035
101	0xbd66a0bb	-0.05630563
102	0x3f124c2a	0.5714747
103	0x3ef321d3	0.47486743
104	0xbe8296cc	-0.25505674
105	0x3e23c6b5	0.1599377
106	0xbe4598f2	-0.19296625
107	0xbd3d3e31	-0.04620189
108	0x3edac3ce	0.42727512
109	0x3ea9a3ff	0.33132932
110	0x3ae1f2c3	0.0017238486
111	0x3e9550de	0.2916326
112	0xbc0d3aa4	-0.008619938
113	0xbe231912	-0.15927532
114	0xbc827dac	-0.015929066
115	0x3df7d2e9	0.12100775
116	0x3e65da6f	0.22446607
117	0xbd3ddf78	-0.046355695
118	0xbee53401	-0.44766238
119	0x3dcc54cc	0.09977111
120	0x3eb30b65	0.3496963
121	0x3dd52fd8	0.10409516
122	0xbeb182f5	-0.34670225
123	0x3ca1a2b7	0.019730909
124	0xbda2ad90	-0.07943261
125	0xbe329a15	-0.1744159
126	0xbd026ca7	-0.0318419
127	0xbbf85cea	-0.0075794356
128	0xbecc1500	-0.39859772
129	0x3ead6ac2	0.33870512
130	0xbedf2fc5	-0.43591133
131	0xbe96dcdf	-0.29465386
132	0x3e7dab85	0.24772461
133	0xbf08966e	-0.5335454
134	0x3ec0fa7a	0.37691098
135	0xbec1f5ae	-0.3788275
136	0xbd2c9783	-0.04213668
137	0xbdaf246d	-0.085518695
138	0x3f0cc9c9	0.549954
139	0xbebd6b0d	-0.36995736
140	0x3ea27ed6	0.31737393
141	0x3b618956	0.0034414134
142	0xbde2f0d1	-0.11081088
143	0xbe455704	-0.19271475
144	0xbecb287a	-0.3967932
145	0x3e2452b7	0.16047178
146	0x3c648fa0	0.0139502585
147	0x3e5b5762	0.21420053
148	0x3ebaad42	0.3646031
149	0x3e3ee7db	0.18643133
150	0xbe3c3533	-0.18379669
151	0xbec41783	-0.38299188
152	0xbdcc20f0	-0.0996722
153	0xbebdc09a	-0.37061006
154	0xbe4bbf0e	-0.198971
155	0x3ea6ebcb	0.3260177
156	0x3ecc4825	0.39898792
157	0x3e98368d	0.2972912
158	0x3e006b63	0.12540965
159	0xbea6ea56	-0.3260066
160	0x3e207266	0.1566864
161	0x3d564a1f	0.05231678
162	0xbedf590c	-0.43622625
163	0xbbd24315	-0.006416688
164	0xbe59f61f	-0.21285294
165	0x3e339ea0	0.1754098
166	0x3eb006ed	0.34380284
167	0x3e7cce75	0.24688132
168	0xbec375b8	-0.3817575
169	0x3ee79daf	0.4523749
170	0xbe335021	-0.17511036
171	0xbe00692f	-0.12540124
172	0xbe37f5bb	-0.17964832
173	0xbe75b82c	-0.23996037
174	0x3e3aee87	0.18255053
175	0xbebe4958	-0.37165332
176	0xbdae0e59	-0.0849883
177	0x3ecf2c9c	0.40463722
178	0xbe85aa1a	-0.2610634
179	0xbeb4fea1	-0.35350516
180	0xbd18bd6d	-0.037290026
181	0x3ec6c1d5	0.38819757
182	0xbe1b82ee	-0.15186664
183	0xbe220db4	-0.1582554
184	0xbe92d4e1	-0.2867804
185	0xbea2ae93	-0.31773815
186	0xbe627bb8	-0.22117507
187	0x3ead0e5e	0.33800024
188	0xbe6aaa8f	-0.22916625
189	0xbedba5de	-0.42899984
190	0x3ece9953	0.40351352
191	0xbe1af8be	-0.1513395
192	0x3eb2705d	0.3485135
193	0x3e87c991	0.2652097
194	0xbd159d81	-0.03652716
195	0x3e490a98	0.19632947
196	0xbe82db95	-0.25558153
197	0x3c257047	0.01009757
198	0x3b9040d0	0.0044022575
199	0xbeff8155	-0.4990336
200	0x3eb3fc4f	0.35153434
201	0x3e0e621d	0.13904615
202	0xbe741129	-0.23834671
203	0xbdc74ee2	-0.097318426
204	0xbf1f841d	-0.62310964
205	0xbe32b8dd	-0.17453332
206	0x3de87a76	0.113514826
207	0x3cc4d256	0.024026077
208	0x3e383b0e	0.17991278
209	0xbeb3bbb2	-0.35104138
210	0xbc217b11	-0.0098560015
211	0x3e41f06c	0.1893937
212	0x3c1668f3	0.009180295
213	0x3e3bf39a	0.18354645
214	0xbef4bebf	-0.47801778
215	0xbea2dbbb	-0.31808266
216	0x3d84e2e8	0.064885914
217	0xbf2940f0	-0.6611471
218	0x3e54c052	0.2077649
219	0xbea34c7a	-0.31894284
220	0x3e4d2080	0.20031929
221	0x3df5e85f	0.12007212
222	0xbd2d4448	-0.042301446
223	0xbebe5010	-0.37170458
224	0x3dac66c4	0.084180385
225	0x3eab104a	0.33410865
226	0xbe3e0121	-0.18555118
227	0x3e7ba6b1	0.24575306
228	0x3ecf88dc	0.40534103
229	0x3ca28562	0.019838993
230	0xbe508f27	-0.20367108
231	0xbe3394ee	-0.17537281
232	0x3d033b57	0.032039013
233	0xbde812f6	-0.113317415
234	0x3eb4fe74	0.35350382
235	0x3e922bce	0.28549045
236	0x3ec71cce	0.38889164
237	0xbe376499	-0.17909469
238	0x3e32b2c0	0.17451
239	0x3e926361	0.28591445
240	0x3cd3be20	0.025847495
241	0xbdf4da57	-0.119557075
242	0x3e00fa9c	0.125956
243	0x3e707896	0.234835
244	0xbe8dae39	-0.27671984
245	0xbae8a300	-0.0017748773
246	0x3daeeec0	0.08541632
247	0x3ea7314b	0.32654795
248	0xbe8e709c	-0.2782029
249	0x3ece2849	0.4026511
250	0x3e310950	0.17288709
251	0x3e97d2dc	0.2965306
252	0xbeceb604	-0.40373242
253	0xbdf0e342	-0.11762096
254	0xbeab99ec	-0.3351587
255	0x3ebf1e58	0.37327838

net.0.bias f4 [256]
0	0xbf0c5a1f	-0.54825014
1	0xbe6eec18	-0.2333225
2	0x3e81466f	0.2524905
3	0x3e9465b2	0.28983837
4	0xbed54bd0	-0.41659403
5	0xbe17cdda	-0.1482462
6	0x3d804de6	0.06264858
7	0xbec22de0	-0.37925625
8	0x3c2fdc39	0.0107336575
9	0xbedb2f90	-0.42809725
10	0xbcaf6d88	-0.021414533
11	0xbd800c4e	-0.06252347
12	0x3dca3d8d	0.09875021
13	0xbed5ef47	-0.41784117
14	0xbe6ce2b4	-0.23133355
15	0xbe8ab9b7	-0.27094814
16	0x3ef20c8e	0.47275203
17	0x3e29d264	0.16584164
18	0xbd29e71f	-0.04148018
19	0x3e1a05bd	0.15041251
20	0xbc494481	-0.012284399
21	0xbcb37e0c	-0.02191069
22	0x3ec51369	0.3849137
23	0x3dcad76a	0.09904368
24	0xbeb36c4a	-0.35043555
25	0xbe980935	-0.29694524
26	0x3e0de237	0.13855825
27	0xbe57d5b3	-0.21077614
28	0xbe695960	-0.22788
29	0xbd30775c	-0.04308258
30	0xbe3f743b	-0.18696682
31	0xbeed3216	-0.46327275
32	0x3ea982ed	0.331077
33	0x3b446a9d	0.0029970773
34	0x3ecbf2fe	0.39833826
35	0x3e7690c4	0.24078661
36	0x3ed6b061	0.4193144
37	0xbe7c40f2	-0.2463415
38	0x3eae50fb	0.34046158
39	0x3ebbda30	0.366899
40	0xbeb3e154	-0.3513285
41	0xbec01ff2	-0.37524372
42	0xbedd7a53	-0.43257388
43	0x3e20c657	0.1570066
44	0x3eab304a	0.3343528
45	0xbe09571b	-0.13412134
46	0xbea8ec3e	-0.32992738
47	0x3e93510d	0.28772774
48	0x3ef2bf94	0.47411788
49	0xbbeb3ab6	-0.0071786297
50	0x3efabf0c	0.48973882
51	0xbee2242d	-0.44168225
52	0xbeb34f46	-0.35021418
53	0x3e934045	0.2875997
54	0x3e9c98af	0.30585238
55	0xbe0ee436	-0.13954243
56	0xbe8de694	-0.2771498
57	0xbee0755b	-0.43839535
58	0xbd72e148	-0.059296876
59	0xbe41fd52	-0.1894429
60	0xbdc78481	-0.0974207
61	0xbe862ec7	-0.26207563
62	0x3cdf1f86	0.027236711
63	0x3eb8557b	0.36002716
64	0x3ebda660	0.37040997
65	0xbe7e2ca4	-0.24821717
66	0x3de107b1	0.10987795
67	0x3c8b82dc	0.017030172
68	0xbe1602e6	-0.14649543
69	0x3cf3185b	0.0296747
70	0xbd95cbb4	-0.07314244
71	0x3e878b8d	0.26473656
72	0xbe8efe9a	-0.2792862
73	0xbe218fb7	-0.15777479
74	0xbe3856bb	-0.18001835
75	0xbeda9b77	-0.42696735
76	0xbe74c2e5	-0.23902471
77	0xbe8e6549	-0.2781165
78	0x3e2eb5ca	0.17061535
79	0x3e500a64	0.20316464
80	0xbe11902b	-0.14215152
81	0xbdc756b5	-0.09733335
82	0xbc19790e	-0.009367241
83	0xbd5b54e1	-0.053547744
84	0x3ed17924	0.40912735
85	0x3eaf9a68	0.3429749
86	0x3ed9644a	0.42459327
87	0x3ecdaae1	0.40169433
88	0xbe9b9a92	-0.30391365
89	0x3e30732b	0.17231433
90	0x3eae498d	0.3404049
91	0xbeb3e53e	-0.35135835
92	0xbe332cb4	-0.17497522
93	0xbe838ef0	-0.2569499
94	0x3ed39fe3	0.4133292
95	0x3ec9434c	0.39309156
96	0xbee983e9	-0.45608452
97	0xbebf91fe	-0.3741607
98	0xbe04178b	-0.12899606
99	0xbebb7290	-0.36610842
100	0x3eef08dd	0.4668645
101	0x3e308edf	0.17242001
102	0x3e94e1fb	0.2907866
103	0xbda41aa9	-0.080128975
104	0xbe98bbe7	-0.29830858
105	0xbe1bf404	-0.15229803
106	0x3e3b3631	0.18282391
107	0x3e2437ab	0.1603686
108	0x3e5ad20a	0.21369186
109	0x3c34fd56	0.011046728
110	0x3e443e6b	0.19164436
111	0xbd9267db	-0.07148715
112	0x3eb8d4a1	0.36099723
113	0xbe97b24a	-0.2962821
114	0x3ef4e826	0.47833365
115	0x3e88c6de	0.26714224
116	0xbdf35a79	-0.11882491
117	0x3e588967	0.21146165
118	0x3dc63eca	0.09679945
119	0x3ca6e577	0.02037309
120	0xbea75bb0	-0.3268714
121	0x3e07e328	0.13270247
122	0xbe065af8	-0.1312064
123	0x3ee9e155	0.45679727
124	0x3ebe477d	0.37163916
125	0x3e12fe25	0.14354761
126	0xbeb67a16	-0.3564002
127	0xbe003c87	-0.1252309
128	0x3d56e552	0.05246479
129	0x3ec9eb7c	0.39437473
130	0x3c8bb6bf	0.017054914
131	0xbcd80285	-0.026368389
132	0x3eb02412	0.3440252
133	0x3ed406fa	0.41411573
134	0x3e960acf	0.2930512
135	0xbeb0aaca	-0.34505302
136	0xbd91f922	-0.071275964
137	0xbe860158	-0.261729
138	0xbe9935f9	-0.2992399
139	0x3ead4a21	0.33845618
140	0x3e8970e3	0.26843938
141	0xbe341cfe	-0.17589185
142	0xbeb1de9e	-0.34740156
143	0x3e985b94	0.2975737
144	0x3e7591bf	0.23981379
145	0xbd8bb74a	-0.06822069
146	0xbf05e939	-0.52308995
147	0x3eb405aa	0.3516057
148	0x3e79d5ca	0.2439796
149	0xbe85ca5a	-0.26130944
150	0x3def2ed1	0.116788514
151	0x3eaad26b	0.3336366
152	0x3e9ee4cf	0.31033942
153	0x3d57f551	0.052724186
154	0xbda5e228	-0.080997765
155	0x3ebddcc1	0.37082484
156	0xbe923eba	-0.28563482
157	0x3c88a52a	0.016680319
158	0xbdc51bec	-0.09624466
159	0x3eecfc15	0.46286073
160	0xbe12e6fd	-0.14345928
161	0x3ecdd604	0.40202343
162	0x3e20fc43	0.1572123
163	0x3ea4abf9	0.32162455
164	0xbee29ff8	-0.4426267
165	0xbe4fdfde	-0.20300242
166	0x3edd6152	0.43238312
167	0xbee1df6a	-0.44115764
168	0xbcd0ae85	-0.025473842
169	0x3ec6976c	0.387874
170	0xbe30bd9a	-0.17259827
171	0xbed9fa1d	-0.42573634
172	0x3e15bd89	0.14623083
173	0xbd90b386	-0.070654914
174	0x3ea5963a	0.32341176
175	0xbe455b49	-0.19273104
176	0xbe54d9b4	-0.20786172
177	0xbe9c07e4	-0.3047477
178	0x3e571731	0.2100494
179	0xbe13f656	-0.14449438
180	0xbebbb982	-0.3666497
181	0xbe0f4189	-0.13989843
182	0x3ea013b5	0.31265035
183	0x3ecd6026	0.40112418
184	0x3eefce41	0.46837047
185	0xbe9f25fd	-0.3108367
186	0x3ce2d73e	0.027690526
187	0xbd031053	-0.03199799
188	0xbef50cbb	-0.47861275
189	0xbec92fac	-0.39294183
190	0x3c6faee9	0.014629104
191	0xbea6e701	-0.32598117
192	0x3ee4bee6	0.44676894
193	0x3d0deb0b	0.034647983
194	0x3d23dc73	0.04000516
195	0x3e696332	0.22791746
196	0x3e817a6d	0.25288716
197	0x3e149f8c	0.14513987
198	0x3ef279dc	0.47358596
199	0x3ebc53c0	0.36782646
200	0xbe66cb40	-0.22538471
201	0x3da5f497	0.081032924
202	0x3d7c281c	0.06156169
203	0x3c4b3365	0.01240239
204	0xbe586093	-0.2113059
205	0xbe9257f6	-0.28582734
206	0xbed70932	-0.41999203
207	0xbe12bafd	-0.14329143
208	0xbe9f54d7	-0.31119415
209	0xbdcaf7e4	-0.09910563
210	0x3dbabf32	0.09118499
211	0xbe9f90d6	-0.3116519
212	0x3e024d90	0.127249
213	0x3e1c1b8b	0.15244882
214	0x3ef49bdd	0.47775164
215	0x3ef3050c	0.47464788
216	0xbe1e6ef6	-0.15472016
217	0x3d15df03	0.036589634
218	0xbee6f1d6	-0.4510638
219	0xbe53c02e	-0.2067878
220	0xbe0220fc	-0.12707895
221	0xbe314ee3	-0.17315249
222	0x3e91b544	0.28458607
223	0x3ecea376	0.40359086
224	0xbe6990a3	-0.22809081
225	0xbd248f3b	-0.040175658
226	0xbdde5e3b	-0.10857817
227	0x3e1640ca	0.14673153
228	0x3ee54d46	0.44785517
229	0xbed4c935	-0.4155976
230	0x3eb8c69b	0.36089024
231	0x3eb5ecb2	0.35532147
232	0x3eb64fde	0.3560781
233	0x3eff7792	0.49895912
234	0x3eda61a7	0.42652628
235	0xbebcc19b	-0.3686646
236	0xbec48fe2	-0.38391024
237	0xbed1bd76	-0.4096486
238	0x3ecca99f	0.3997316
239	0x3e7aef84	0.2450543
240	0xbed9325c	-0.42421234
241	0x3ec19a53	0.37813053
242	0xbdd7287a	-0.10505767
243	0xbe110558	-0.14162195
244	0x3e2a3744	0.16622645
245	0x3e662a75	0.22477134
246	0xbe3d10e9	-0.18463482
247	0x3e5cd433	0.21565323
248	0x3e6b12e4	0.22956425
249	0xbe13d36e	-0.14436123
250	0x3db88fef	0.09011828
251	0x3eb38e7d	0.35069647
252	0x3ea0a090	0.313725
253	0xbd366399	-0.044528577
254	0x3e2474b0	0.16060138
255	0x3ebdfb04	0.37105572

net.2.weight f4 [256, 256]
0	0xbdbbe504	-0.09174541
1	0x3d4293f2	0.047504373
2	0xbcd029d7	-0.025410576
3	0xbda3b27a	-0.07993026
4	0x3c74aebc	0.014934238
5	0xbcd184d2	-0.025576029
6	0x3c152f63	0.009105536
7	0xbcb052d1	-0.021523865
8	0x3d79402e	0.060852222
9	0x3c46e831	0.01214032
10	0xbd3f2332	-0.046664424
11	0x3d7321c1	0.059358362
12	0x3cdc5ab8	0.026898727
13	0xbc90cd5f	-0.017676054
14	0x3c91d5d0	0.017802149
15	0x3d51b8d0	0.05120164
16	0x3cdcb3f2	0.026941273
17	0xbc56d92e	-0.013113303
18	0xbd258c38	-0.040416926
19	0xbd4bfd39	-0.04980204
20	0x3d1d6f75	0.03843637
21	0xbd05aa6f	-0.03263324
22	0xbc8b9170	-0.017037123
23	0x3b022963	0.0019861094
24	0x3c0dd5f0	0.008656964
25	0x3d09f36b	0.033679407
26	0xbd56c74a	-0.05243615
27	0x3c993fba	0.018707145
28	0xbd1196ea	-0.035544313
29	0xbd53a8c2	-0.051674612
30	0x3bc1f18d	0.0059186877
31	0xbd138fea	-0.03602592
32	0x3d4fcea1	0.050734166
33	0xbcb32ae4	-0.021871038
34	0xbcb48b8f	-0.022039203
35	0xbc7f6894	-0.015588898
36	0x3d31ef84	0.04344131
37	0x3a8a3ff9	0.001054763
38	0xb9e21fd4	-0.00043129793
39	0x3d35df8a	0.044402637
40	0x3d34e8c2	0.044167288
41	0x3c64c094	0.01396193
42	0xbd169ea9	-0.036772404
43	0xbcef2a94	-0.029195108
44	0xbd860e84	-0.065457374
45	0xbac4f061	-0.0015025252
46	0xbc6729de	-0.014109103
47	0x3cc48f92	0.02399424
48	0xbd3d5a23	-0.04622854
49	0x3b17f51f	0.0023186875
50	0x3d074b7b	0.03303097
51	0xbc10ea53	-0.00884493
52	0x3bfa61d3	0.007641056
53	0xbc4f7c2f	-0.012663885
54	0x3d76610a	0.060151137
55	0x3d819cd6	0.06328742
56	0x3cf1ef11	0.029532941
57	0xbc1ddcdb	-0.009635176
58	0x3da1ae06	0.078945205
59	0xbd67a60b	-0.056554835
60	0xbd40cf2b	-0.04707257
61	0xbd05f01f	-0.0326997
62	0x3d37d51e	0.04488098
63	0x3cf45e9d	0.029830271
64	0xbb16acc5	-0.0022991162
65	0xbb82b8ea	-0.0039893286
66	0xbcc36f5d	-0.023856813
67	0xbc8decbe	-0.017324802
68	0x3d183f5f	0.03716981
69	0x3a81685e	0.0009873023
70	0xbd17fc80	-0.037106037
71	0xbbb8a720	-0.005635157
72	0x3d51f5cc	0.0512598
73	0x3cbad3dd	0.022806102
74	0x3d281a66	0.0410408
75	0x3cbc91fc	0.02301883
76	0xbd4d87ae	-0.050178222
77	0x3d3053b4	0.043048576
78	0xbde9a942	-0.114092365
79	0xbd07798e	-0.033074908
80	0x3c5a5421	0.013325722
81	0xbd363a13	-0.044488978
82	0xbd4e186a	-0.05031625
83	0xbcfa1c29	-0.030531006
84	0xbd081457	-0.033222523
85	0xbce72fd7	-0.028221054
86	0xbbca81db	-0.0061800308
87	0xbc6713c3	-0.014103833
88	0x3d77c297	0.06048831
89	0xbd23a4d8	-0.03995213
90	0xbcacbe68	-0.021086887
91	0x3d846134	0.064638525
92	0x3bf65335	0.0075172433
93	0x3c6fe31b	0.0146415485
94	0xbbb58a58	-0.0055401735
95	0x3b8c34c4	0.004278751
96	0xbdbf14b5	-0.093301214
97	0x3d437dfc	0.04772757
98	0x3d554eea	0.05207721
99	0x3d41ce9c	0.04731618
100	0x3d96f6a6	0.07371263
101	0x3d28434c	0.041079804
102	0xbd6b9178	-0.057511777
103	0xbd0143f9	-0.031558964
104	0x3c2146c2	0.00984353
105	0xbc8fc904	-0.017551906
106	0x3d6c8fbf	0.057754274
107	0x3cd035c9	0.025416272
108	0x3d63a108	0.055573493
109	0x3d534812	0.051582403
110	0xbd68dbcf	-0.05685025
111	0xbd48cabe	-0.049021475
112	0xbcb8b450	-0.022546917
113	0xbdc7f3fe	-0.09763335
114	0x3d94a692	0.07258333
115	0x3cbb3705	0.022853384
116	0x3d1d0107	0.038331058
117	0xbd84ff38	-0.064939916
118	0x3b858549	0.0040747267
119	0xbd380d3a	-0.04493449
120	0xbc750e97	-0.014957092
121	0x3c8be105	0.017075071
122	0xbd4c94c7	-0.049946573
123	0x3cd9e8a7	0.026600195
124	0xbcb65c0e	-0.022260692
125	0xbd3f510e	-0.04670816
126	0xbe13626e	-0.14393017
127	0xbc14f328	-0.009091176
128	0x3d145637	0.036215033
129	0xbbcc8d8c	-0.0062424596
130	0x3d1c111b	0.03810225
131	0xbaf81d91	-0.001892971
132	0xbd37c9ac	-0.044870064
133	0x3d1771e3	0.036973845
134	0xbd5fcfd3	-0.054641556
135	0x3d36d75f	0.044638988
136	0xbcdcde5a	-0.026961494
137	0x3d4f11f4	0.05055423
138	0xbd0422c1	-0.032259706
139	0xbd411b83	-0.047145378
140	0xbd91a268	-0.07111055
141	0x3c79b7b8	0.015241556
142	0x3c81cde5	0.015845248
143	0xbd2f1a65	-0.04274978
144	0xbcb92652	-0.02260128
145	0x3d10b615	0.035329897
146	0x3d18f3b4	0.03734179
147	0x3ce43fe3	0.027862495
148	0xbd2724d3	-0.040806603
149	0xbd153c37	-0.03643438
150	0xbd39dfc9	-0.045379434
151	0x3d0b8987	0.034066703
152	0xbd1a44ff	-0.037663456
153	0x3d618ca8	0.05506578
154	0x3d95680d	0.07295237
155	0xbc2520ba	-0.010078603
156	0xbcb9df92	-0.022689614
157	0xbc296e5b	-0.010341252
158	0x3d209f91	0.039214674
159	0xbcdba0a1	-0.026809992
160	0x3d7d1b51	0.06179363
161	0x3ca98490	0.020693094
162	0x3d805a37	0.06267207
163	0x3cdbf7a4	0.026851483
164	0xbd49f708	-0.049307853
165	0x3a12bd1b	0.0005597637
166	0x3cffe6da	0.031238008
167	0x3d8405de	0.064464316
168	0xbd30bd35	-0.043149192
169	0x3ce87919	0.028378056
170	0x3d3f7696	0.04674395
171	0x3d481593	0.0488487
172	0x3d278a6e	0.0409035
173	0x3c02fbe9	0.00799463
174	0xbad821ef	-0.0016489605
175	0xbd56af94	-0.052413538
176	0x3d360d71	0.044446412
177	0x3bcc894a	0.006241952
178	0xbaeac9e3	-0.001791295
179	0xbd31c1f4	-0.04339786
180	0xbc925d09	-0.017866628
181	0xba7f8ca0	-0.0009748433
182	0x3d58982a	0.05287949
183	0xbc561605	-0.013066773
184	0xbd488eb8	-0.048964232
185	0xbc53c27e	-0.0129247885
186	0x3c7d2866	0.015451526
187	0x3ced0941	0.028935077
188	0xbc84535e	-0.016153034
189	0x3bc5f941	0.0060416763
190	0x3d9d9ee8	0.076963246
191	0x3bb896b2	0.0056331987
192	0x3d3f1526	0.046651028
193	0x3c3a00d1	0.011352734
194	0x3b107731	0.00220437
195	0xbc9f2a45	-0.019429335
196	0xbd6d19f5	-0.057886083
197	0x3c8da129	0.017288761
198	0x3d2ca0d5	0.04214557
199	0xbd6b596b	-0.057458322
200	0x3c329cfc	0.010901686
201	0xbbf05456	-0.0073342724
202	0x3cb04f0f	0.021522073
203	0x3d7d8ec4	0.06190373
204	0xbc443a03	-0.011976722
205	0x3c1412ec	0.009037714
206	0xbbbec5c4	-0.0058219153
207	0xba6558c8	-0.0008748886
208	0xbc5b1d79	-0.013373726
209	0x3d1f8cbf	0.038952585
210	0x3cfd1293	0.030892646
211	0x3cc5a407	0.024126066
212	0x3c46397a	0.012098664
213	0xbb852d46	-0.004064235
214	0x3cf2c139	0.029633151
215	0xbcd53d3d	-0.026030177
216	0x3cb85bae	0.022504654
217	0x3d6af4db	0.05736242
218	0x3cc8ddf2	0.024519894
219	0x3cc549bd	0.024083013
220	0xbd429425	-0.047504563
221	0x3d02f2b2	0.031969734
222	0x3c78cfcc	0.015186261
223	0xbd41cb5e	-0.047313087
224	0xbcac016a	-0.020996768
225	0xbd7d4918	-0.061837286
226	0xbc5733ca	-0.013134906
227	0x3bb19b79	0.005420145
228	0x3d729b5d	0.059230197
229	0xbc5ba805	-0.013406758
230	0x3d995b10	0.07488072
231	0x3d0d28b6	0.034462653
232	0x3cc897f6	0.024486523
233	0x3cb9831a	0.022645522
234	0xbd597c54	-0.053097084
235	0xbda0ffe6	-0.07861309
236	0x3d7b3789	0.06133226
237	0xbcdf2c39	-0.027242767
238	0xbc25705e	-0.010097591
239	0xbc8cad5f	-0.017172514
240	0x3c839ccb	0.016065976
241	0x3d89bf79	0.06725974
242	0x3a607a13	0.00085631124
243	0x3d67e548	0.056615144
244	0xbd50705f	-0.050888415
245	0x3d2d47b3	0.042304706
246	0x3cbe34ef	0.0232186
247	0xbd59c917	-0.05317029
248	0xbb82cb63	-0.0039915307
249	0x3c97ee2e	0.01854619
250	0x3c817ffa	0.015808094
251	0xbcd17268	-0.025567248
252	0x3cea15d3	0.02857486
253	0xbdaa7bdc	-0.083244056
254	0x3bdd2f86	0.00675005
255	0x3d6c085a	0.057625152

net.2.bias f4 [256]
0	0xb8de4d06	-0.00010600132
1	0xbd93f860	-0.07225108
2	0x3c8abdbf	0.016936181
3	0xbd611e79	-0.0549607
4	0xbca1ffc7	-0.019775284
5	0xbbd41ebf	-0.006473392
6	0x3d648e09	0.055799518
7	0xbc859b84	-0.016309507
8	0x3d4a6e6e	0.04942172
9	0xbc77c761	-0.015123219
10	0x3cf92c54	0.030416645
11	0x3e1c2a1a	0.15250435
12	0x3be97416	0.007124434
13	0xbc0a9234	-0.008457709
14	0xbb168068	-0.002296472
15	0xbdb36da8	-0.0876115
16	0xbd2ce8d1	-0.04221422
17	0xbda3262c	-0.07966265
18	0xbdd42b26	-0.103597924
19	0x3d186f94	0.037215784
20	0xbc8258e8	-0.015911534
21	0xbdb75eeb	-0.08953651
22	0xbdac6f45	-0.084196605
23	0xbce9607f	-0.028488396
24	0xbdc1e1a0	-0.09466863
25	0xbd92038e	-0.07129584
26	0x3dc9252b	0.09821542
27	0xbd01e824	-0.031715527
28	0x3dd8dc70	0.1058892
29	0xbbea1070	-0.007143073
30	0x3d8a33f9	0.06748194
31	0x3db42c2f	0.0879749
32	0xbcc9b4eb	-0.024622401
33	0xbdd3ebc4	-0.10347703
34	0xbd931e1b	-0.071834765
35	0x3d6b2338	0.057406634
36	0x3d1dd922	0.038537152
37	0xbdf511d2	-0.119662896
38	0xbdf4f494	-0.11960712
39	0xbd03293c	-0.032021746
40	0xbd519bad	-0.051173855
41	0xbd089aa4	-0.0333506
42	0xb8e17560	-0.00010750699
43	0x3d4eb646	0.0504668
44	0x3dbf4638	0.09339565
45	0xbe0325b0	-0.12807345
46	0x3d2e71dd	0.042589057
47	0xbc367225	-0.011135613
48	0x3b4cc7c7	0.0031247006
49	0xbd2c2b5b	-0.042033534
50	0x3debba54	0.11510149
51	0xbd564cce	-0.05231934
52	0x3c3047c6	0.0107593
53	0xbdb4eea4	-0.088345796
54	0x3d423b2c	0.047419712
55	0xbb151ea8	-0.0022753868
56	0xbd0d30ae	-0.034470253
57	0xbc919bf2	-0.017774556
58	0xbdf1031d	-0.11768172
59	0x3de51346	0.11185317
60	0x3d0d6a9b	0.034525495
61	0x3d51f703	0.05126096
62	0x3db2d95c	0.08732864
63	0x3d0106cd	0.031500626
64	0xbb2bc17f	-0.0026207862
65	0x3e0edb30	0.13950801
66	0xbdebb3fd	-0.115089394
67	0xbdccda0b	-0.10002526
68	0x3d204649	0.03912953
69	0xbd8a6c40	-0.06758928
70	0xbc58447c	-0.013199922
71	0xbe068fa6	-0.13140735
72	0xbd837d88	-0.064204276
73	0x3c7326b4	0.0148407705
74	0xbd1faca2	-0.038982995
75	0xbccfe2e7	-0.02537675
76	0xbd018318	-0.03161916
77	0x3c0dc3e0	0.008652657
78	0x3d96d736	0.07365267
79	0xbc9b1164	-0.018929191
80	0xbcfdbbc8	-0.03097333
81	0x3db81d08	0.08989912
82	0xbd81ad9d	-0.06331942
83	0xbb7be7f5	-0.0038437818
84	0x3d76ef05	0.06028654
85	0xbdc0836a	-0.09400065
86	0xbc16c899	-0.0092031
87	0x3dad7044	0.084686786
88	0xbbe2240e	-0.0069012707
89	0xbd90be4e	-0.07067548
90	0x3d48f5e5	0.04906263
91	0xbdc3b45f	-0.095558874
92	0x3c8f0303	0.01745749
93	0xbda5da93	-0.0809833
94	0x3deb170a	0.11479004
95	0x3d8d380a	0.06895454
96	0xbd527d61	-0.051389102
97	0xbd821729	-0.06352074
98	0x3d148375	0.03625818
99	0x3d05fe9d	0.03271352
100	0x3d84218e	0.064517125
101	0xbc634e61	-0.013873667
102	0xbb7641e7	-0.0037575902
103	0xbdcd3d95	-0.100215115
104	0x3d93fc12	0.07225813
105	0x3d3dba09	0.046319995
106	0x3c9f7a05	0.019467363
107	0xbd1d2cf4	-0.03837295
108	0xbd4be27e	-0.049776547
109	0xbdd8061f	-0.105480425
110	0xbd94013a	-0.072267964
111	0xbdb3297c	-0.08748147
112	0x3cf2dfd2	0.029647741
113	0xbc6bb281	-0.01438582
114	0x3cc25229	0.023720818
115	0xbd36099b	-0.044442754
116	0x3c7325a2	0.014840515
117	0xbb6d385e	-0.0036196928
118	0xbdd1c238	-0.102421224
119	0xbd89c227	-0.06726485
120	0xbcc2e102	-0.023788933
121	0xbc857440	-0.016290784
122	0xbd095e01	-0.033536915
123	0x3dbe7131	0.09298933
124	0xbd8eb25b	-0.06967612
125	0x3c18b24c	0.009319853
126	0x3c845a17	0.01615624
127	0xbd4d64da	-0.050145008
128	0xbd4d954a	-0.0501912
129	0x3dade3e7	0.084907345
130	0xbe09db4e	-0.13462564
131	0xbd5a00b3	-0.053223323
132	0x3db38bd0	0.087669015
133	0xbdf59efb	-0.11993214
134	0x3dd29345	0.10281996
135	0x3d57fadd	0.052729476
136	0xbb32af5f	-0.0027265174
137	0x3d443757	0.04790434
138	0xbc477150	-0.012173012
139	0xbca5da7f	-0.020245789
140	0x3c1101b4	0.008850504
141	0x3d85223e	0.06500672
142	0xbceec12e	-0.02914485
143	0xbe21d62b	-0.15804355
144	0xbda4785d	-0.0803077
145	0x3d2d45b4	0.042302802
146	0xbd090974	-0.03345628
147	0xbdd30b84	-0.10304931
148	0xbbed8339	-0.007248309
149	0xbde23dc4	-0.11046937
150	0x3c52f8f5	0.012876739
151	0xbabd82db	-0.0014458554
152	0x3bb9ab42	0.0056661675
153	0xbcdbbfb1	-0.026824804
154	0xbd6e5d1c	-0.058194265
155	0x3d8afbed	0.06786332
156	0x3a67c540	0.0008841343
157	0xbcf05de9	-0.029341655
158	0x3dad94e7	0.084756665
159	0xbc309898	-0.010778569
160	0x3d1585f5	0.036504705
161	0xbca2ffdb	-0.019897392
162	0xbbcb54f1	-0.006205194
163	0xbd8753b8	-0.06607765
164	0x3d8e569f	0.069501154
165	0x3dbb17c0	0.09135389
166	0x3d339857	0.043846454
167	0xbd9fdb96	-0.078055546
168	0x3d7b3324	0.06132807
169	0xbd7524fa	-0.059849717
170	0x3d4cdb83	0.05001403
171	0xbd1ce4bf	-0.038304087
172	0x3dda936e	0.10672651
173	0x3d9d1717	0.0767042
174	0x3cd62069	0.026138501
175	0x3d312d86	0.043256305
176	0xbdda7ad4	-0.10667959
177	0x3806cdf5	3.2139902e-05
178	0xbc9470f3	-0.018120265
179	0x3d8fa8ac	0.070145935
180	0xbd27c7ee	-0.040962152
181	0x3d107bd9	0.03527436
182	0x3da4e3eb	0.080512844
183	0xbc6fd544	-0.014638249
184	0xbd7c0d1a	-0.061535932
185	0xbd68d03e	-0.05683922
186	0xbd83f23b	-0.06442686
187	0x3dd69975	0.10478488
188	0xbcfa8cd5	-0.030584732
189	0x3b8589b1	0.004075252
190	0xbd0def9c	-0.034652337
191	0xbd9f293e	-0.07771538
192	0xbd6de0d4	-0.05807574
193	0x3d99bbad	0.075064994
194	0x3b3bf5af	0.0028680374
195	0x3d3c47a3	0.045966756
196	0x3d809692	0.06278719
197	0xbc29538f	-0.010334863
198	0x3d7693f3	0.06019969
199	0x3c053a0e	0.008131517
200	0xbb4d5b28	-0.003133485
201	0xbd0467f1	-0.03232569
202	0x3ae4f8c1	0.0017469154
203	0x3c7568eb	0.014978628
204	0x3d642319	0.055697534
205	0xbd86fd7a	-0.065913156
206	0xbd63bc36	-0.055599414
207	0x3c490340	0.012268841
208	0xbdf4d254	-0.119541794
209	0x3d6f44e6	0.058415316
210	0xbd0bb187	-0.03410485
211	0x3e250249	0.16114153
212	0xbd87c83a	-0.06629987
213	0xbe22f7cc	-0.1591484
214	0xbc88c270	-0.016694278
215	0xbd091ff0	-0.033477724
216	0x3d38fa72	0.04516072
217	0x3dca8358	0.09888333
218	0xbd11c482	-0.035587795
219	0xbd967a61	-0.07347561
220	0x3c8ad477	0.016947014
221	0xbc1e8e58	-0.009677492
222	0xbb147e35	-0.0022658233
223	0xbd988bdb	-0.0744855
224	0x3d85c82f	0.065323226
225	0xbdb30cf7	-0.08742707
226	0x3c50914d	0.012729955
227	0xbd2a87a4	-0.041633263
228	0xbc504289	-0.012711176
229	0xbde51a64	-0.11186674
230	0x3c89ab5b	0.016805341
231	0x3e3aba5a	0.1823515
232	0xbdda775d	-0.10667298
233	0xbe015b65	-0.1263252
234	0x3d8d6b26	0.069052026
235	0x3d6a9129	0.05726734
236	0x3b8d7bfd	0.004317759
237	0x3c8c4827	0.017124249
238	0x3dcbe185	0.09955124
239	0xbe098a9d	-0.13431783
240	0x3d11f5de	0.035634868
241	0x3cd0d9e6	0.025494527
242	0x3dbe21ed	0.092838146
243	0xbdb48046	-0.08813529
244	0x3d86d1df	0.065829985
245	0x3dd940f4	0.10608092
246	0xbbded1d3	-0.0067999153
247	0xbc83e528	-0.016100481
248	0xbcdd866c	-0.027041636
249	0xbc9217c9	-0.017833607
250	0x3da7c301	0.08191491
251	0xbd4af85b	-0.049553256
252	0xbd364384	-0.04449798
253	0x3d0b8892	0.03406579
254	0xbcb644a8	-0.022249535
255	0x3d18e8a3	0.037331235

net.4.weight f4 [256, 256]
0	0xbd14b0f5	-0.036301572
1	0xbce20188	-0.02758862
2	0x3dc3dfa7	0.09564143
3	0xbd7f55d2	-0.062337704
4	0x3d2b1974	0.04177232
5	0xbd118a4c	-0.03553228
6	0x3d762c71	0.060100976
7	0xbd615ad8	-0.055018276
8	0xbd257d9f	-0.040403005
9	0x3c9096ad	0.017649973
10	0xbc60c845	-0.013719623
11	0x3d9b9cb6	0.075982496
12	0x3d0b4f97	0.03401145
13	0xbd762472	-0.06009335
14	0x3d3ca4fc	0.04605578
15	0x3d368925	0.044564385
16	0x3d18dd52	0.037320442
17	0xbd691288	-0.05690244
18	0xbbf2d802	-0.007411004
19	0xbc0e0630	-0.008668467
20	0xbd42ab6f	-0.047526773
21	0xbd342cda	-0.043988086
22	0x3c83919e	0.016060647
23	0xbd03e9b0	-0.032205284
24	0xbcdcbdb3	-0.026945924
25	0x3cfd9385	0.030954132
26	0xbd04b750	-0.032401383
27	0xbd2b7b99	-0.04186592
28	0x3d732def	0.059369978
29	0xbd4dbbcf	-0.050227936
30	0x3b203131	0.0024443383
31	0x3ce05980	0.027386427
32	0xbd2d1c17	-0.042263117
33	0x3c49dd73	0.012320864
34	0xbc26085e	-0.010133831
35	0xbd2bdac3	-0.041956674
36	0x3d143bf2	0.03618998
37	0x3c4195df	0.011815517
38	0xbc6d5082	-0.014484527
39	0xbd54e2f8	-0.051974267
40	0x3c36e9f9	0.011164182
41	0xbd5e61cb	-0.05429248
42	0x3d5d9bbc	0.054103598
43	0x3c465ba4	0.01210681
44	0xbc03d893	-0.008047241
45	0x3d20ba5b	0.039240222
46	0x3cb58fb5	0.022163251
47	0x3ac5802f	0.0015068109
48	0xbd3aab5e	-0.045573585
49	0x3cc42de5	0.023947665
50	0x3c803c92	0.015653882
51	0x3d43db58	0.047816604
52	0x3c9ecb4f	0.019384054
53	0x3bb25d59	0.005443257
54	0xbcc0497f	-0.023472546
55	0x3d7fdad5	0.062464554
56	0x3d03268c	0.032019183
57	0xbd3ef097	-0.046616163
58	0xbc71e568	-0.014764167
59	0x3d0fe6ee	0.03513234
60	0xbc274467	-0.0102091795
61	0xbc01e386	-0.007927781
62	0xbd1ceac3	-0.038309824
63	0xbd3a43e0	-0.045474887
64	0xbd8019bd	-0.06254909
65	0xbd04aea3	-0.03239311
66	0x3d1bd2f2	0.03804297
67	0x3cbfa5fa	0.023394573
68	0xbd1e13e1	-0.038593177
69	0xbc2c3bba	-0.010512287
70	0x3d34eea2	0.04417289
71	0x3cc41756	0.023936909
72	0x3c92b296	0.017907422
73	0xbd5d677c	-0.05405377
74	0xbd1f6d26	-0.03892245
75	0x3d095bfd	0.033534992
76	0x3c614b2a	0.013750831
77	0x3c08c6a5	0.008348142
78	0x3d54d77a	0.051963307
79	0xbd84503d	-0.06460617
80	0x3cfb41a2	0.030670945
81	0xbd2fdceb	-0.042935293
82	0xbd737956	-0.059441887
83	0x3d0919c8	0.033471853
84	0x3d83c177	0.06433385
85	0xbd969db2	-0.07354297
86	0xbd09c78a	-0.03363756
87	0x3b049b58	0.0020234194
88	0x3cd94ba5	0.026525328
89	0x3d2024bc	0.039097533
90	0x3d2d5bf4	0.04232402
91	0xbd86d980	-0.065844536
92	0x3c030053	0.007995683
93	0xb9952264	-0.00028445118
94	0x3d9571db	0.07297107
95	0x3d7858c7	0.06063154
96	0xb8dff808	-0.00010679668
97	0xbd8d358c	-0.06894979
98	0x3d95e240	0.073185444
99	0xbd67afbd	-0.05656408
100	0x3d7f473b	0.06232379
101	0x3bde5285	0.0067847394
102	0xbcaeb549	-0.021326678
103	0xbb6d3b49	-0.0036198667
104	0x3d0f6a85	0.035013694
105	0xbd791de8	-0.060819536
106	0xbd0deea0	-0.0346514
107	0xbd68e775	-0.05686136
108	0xbd38c1e1	-0.045106772
109	0xbd5ee3fa	-0.054416634
110	0x386216fc	5.3904005e-05
111	0xbd618e93	-0.05506761
112	0xbceeba51	-0.029141577
113	0xbdaff1b1	-0.08591021
114	0x3cfef030	0.03112039
115	0xbd4995f4	-0.049215272
116	0x3cdb915d	0.026802713
117	0x3d5e6515	0.054295618
118	0x3cc532ca	0.02407207
119	0x3d4e51c0	0.05037093
120	0x3b7612f0	0.0037547909
121	0xbcd4b3c3	-0.025964623
122	0x3bbec323	0.005821602
123	0x3bbc610b	0.005748873
124	0x3d0b2773	0.03397317
125	0xbca9a5d6	-0.02070896
126	0x3cdeeff4	0.027214028
127	0xbd21df18	-0.0395194
128	0x3d35dfc8	0.044402868
129	0xbcf91249	-0.030404227
130	0xbd835868	-0.064133465
131	0x3b048375	0.0020219956
132	0x3d0c348f	0.03422981
133	0xbd8320f8	-0.06402773
134	0x3d833c96	0.0640804
135	0xbd34e1a9	-0.04416052
136	0xbcc63c99	-0.024198817
137	0x3d1acd8a	0.037793674
138	0xbd418a6d	-0.047251154
139	0x3cc24f8b	0.02371957
140	0x3d263c26	0.040584706
141	0x3b2e7432	0.002661955
142	0xbd380bba	-0.04493306
143	0xbc746b47	-0.014918155
144	0xbbf17583	-0.007368745
145	0x3d82c35f	0.0638492
146	0x3c21640f	0.009850516
147	0xbc9e3876	-0.019314032
148	0xbb4d6503	-0.0031340725
149	0x3c9599d9	0.018261837
150	0x3cdcfc22	0.026975695
151	0x3cbb98e9	0.022900062
152	0xbc002bb8	-0.007822923
153	0x3d192ed7	0.037398186
154	0xbd3028cb	-0.043007653
155	0xbb8ea6a0	-0.0043533593
156	0xbc5f3982	-0.013624551
157	0x3d00768f	0.031363066
158	0x3c299c4b	0.010352205
159	0x3d594b90	0.053050578
160	0xbd069abc	-0.03286241
161	0xbd49a2af	-0.049227413
162	0x3d09c8b1	0.03363866
163	0x3c0ecb1f	0.00871542
164	0x3d7fca51	0.062448803
165	0x3d32d548	0.043660432
166	0x3c4cdc96	0.012503764
167	0xbc99e0fc	-0.018784039
168	0x3c6c0609	0.014405736
169	0xbd39a9bc	-0.045327887
170	0xbcff0afe	-0.031133171
171	0xbd82d5d9	-0.063884445
172	0x3d47b138	0.048752993
173	0x3cc18017	0.023620648
174	0x3d043478	0.0322766
175	0x3dd2740f	0.10276043
176	0xbd419d19	-0.04726896
177	0xbd336333	-0.043795776
178	0x3cb7ef5f	0.022453008
179	0x3d037c85	0.032101173
180	0x3d76e588	0.06027749
181	0x3c93c7f1	0.018039675
182	0x3c7c8879	0.015413397
183	0xbd81eeb5	-0.06344358
184	0xbc69c3de	-0.01426789
185	0xbc66aaf4	-0.014078844
186	0xbd2c87b5	-0.042121608
187	0xbc8dab7a	-0.01729368
188	0x3b44a072	0.003000286
189	0x394ec392	0.00019718547
190	0xbd64450d	-0.055729914
191	0xbab7dc0c	-0.0014027371
192	0xbd79587c	-0.0608754
193	0x3d610819	0.054939363
194	0x3cb83713	0.022487199
195	0x3cf3b057	0.029747171
196	0xbae17b04	-0.0017202799
197	0xbc1c13dc	-0.009526219
198	0x3d1c4d9d	0.038159955
199	0xbd8bdbe1	-0.06829048
200	0x3d50994d	0.05092745
201	0xbb518a57	-0.0031973326
202	0xbd3a4dcd	-0.045484353
203	0x3cec92a6	0.028878521
204	0x3cbb3f65	0.022857377
205	0x3c0f4ff0	0.008747086
206	0xbcf0615f	-0.029343305
207	0x3c8b4b3d	0.01700365
208	0x3d282aa4	0.04105629
209	0x3d0415f5	0.032247502
210	0xbca644ee	-0.02029654
211	0x3dab59d0	0.0836674
212	0xbd61f48c	-0.05516486
213	0xbcc2a442	-0.023759965
214	0x3d28f1b2	0.041246124
215	0x3cbf57f3	0.023357367
216	0xbd3ac929	-0.045601998
217	0x3ccea985	0.025227318
218	0x3d0f9886	0.035057567
219	0xbd7e93e0	-0.062152743
220	0x3d0cf132	0.03440971
221	0x3c74171d	0.014898089
222	0xbd77aa6a	-0.060465254
223	0xbd367192	-0.044541903
224	0x3d9fc26b	0.07800754
225	0xbc525001	-0.012836457
226	0x3d174424	0.03693022
227	0x3d1947b5	0.0374219
228	0x3c98e1c7	0.018662347
229	0xbc1ef6c0	-0.0097023845
230	0xbd539478	-0.051655263
231	0x3d1c48c8	0.038155347
232	0xbd992cf8	-0.0747928
233	0x3c8f24dc	0.01747363
234	0x3cdc75d4	0.026911654
235	0xbc8f0eae	-0.017463055
236	0x3c2db430	0.010602042
237	0xbc8a49e0	-0.01688093
238	0x3d440ed2	0.047865696
239	0xbd330306	-0.043704055
240	0xbcbaf7ba	-0.022823203
241	0x3cfa4fd3	0.030555641
242	0xbb800472	-0.00390678
243	0x3d2a00fa	0.041504838
244	0x3d366466	0.04452934
245	0xbc37f4f5	-0.011227836
246	0xbbb980fb	-0.0056611276
247	0xbd125219	-0.035722826
248	0x3a636096	0.0008673755
249	0x3c0f9da5	0.008765613
250	0xbe426e3d	-0.18987365
251	0xbd3b2653	-0.045690846
252	0xbca436e6	-0.020045709
253	0x3d5549fb	0.052072506
254	0xbd5d99b4	-0.05410166
255	0xbba7ce05	-0.005120995

net.4.bias f4 [256]
0	0x3dab5a08	0.083667815
1	0xbdc7c62f	-0.097545974
2	0xbd9b9ee4	-0.07598665
3	0xbdc523ba	-0.09625955
4	0x3d35027a	0.044191815
5	0xbce118e0	-0.027477682
6	0x3da7ae48	0.081875384
7	0xbdf31aea	-0.11870368
8	0x3d09137b	0.033465844
9	0x3dbddfa5	0.092711724
10	0xbc95a418	-0.018266723
11	0x3bd92157	0.006626289
12	0xbbd9b616	-0.006644021
13	0xbd042e28	-0.03227058
14	0x3d7acce5	0.06123056
15	0x3dac54d1	0.08414615
16	0xbd195e1c	-0.037443265
17	0xbdafd05d	-0.08584664
18	0xbc960f91	-0.01831797
19	0x3d0a4bad	0.033763576
20	0xbc8e0079	-0.01733421
21	0xbd147a6c	-0.036249563
22	0xbe4d5ae4	-0.20054203
23	0x3bef9351	0.0073112627
24	0x3b09ccc9	0.0021026602
25	0x3de7df34	0.113218695
26	0x3c887dbf	0.016661523
27	0xb9ccc88a	-0.00039059325
28	0x3c8f3110	0.01747945
29	0xbd9d35d9	-0.07676286
30	0x3c0ad0d0	0.008472636
31	0xbd311d45	-0.043240804
32	0x3b3ed55a	0.0029118867
33	0x3d2f47c1	0.04279304
34	0xbd8ecd70	-0.06972778
35	0x3885ef6c	6.38653e-05
36	0x3c2166ba	0.009851152
37	0x3dc00ffa	0.09378047
38	0xbdecf0ac	-0.11569342
39	0xbd54933b	-0.051898222
40	0xbdef4440	-0.116829395
41	0xb9c061a8	-0.00036693853
42	0x3d6560bb	0.056000452
43	0x3d3b00b7	0.04565498
44	0xbd7b34c1	-0.061329607
45	0x3c52eb49	0.012873479
46	0x3dc76d67	0.09737664
47	0xbc8d3dc2	-0.017241362
48	0x3cac8c2f	0.021062938
49	0xbc82e8e7	-0.015980197
50	0x3d46194c	0.04836397
51	0xbdf66c33	-0.12032356
52	0xbd8a0aa4	-0.06740311
53	0x3da5491b	0.080705844
54	0x3d83bb2f	0.06432187
55	0x3bf69573	0.00752514
56	0x3d808b96	0.06276624
57	0x3d184cf4	0.037182763
58	0x3dcfde58	0.101498306
59	0x3d2b4e9f	0.041823026
60	0xbd157a4d	-0.03649359
61	0x3ba6ae41	0.0050866907
62	0xbe4ade21	-0.19811298
63	0xbd9d793d	-0.0768914
64	0x3d830ae4	0.063985616
65	0x3db78c74	0.08962336
66	0x3cc503e3	0.024049705
67	0x3caab025	0.020835945
68	0xbdaba659	-0.08381338
69	0xbc8fd0ab	-0.017555555
70	0x3d94b4ad	0.07261024
71	0x3baba537	0.005238201
72	0x3dbc1b62	0.0918491
73	0xbd3d72d2	-0.04625208
74	0x3dce4327	0.10071402
75	0x3b86f689	0.0041187447
76	0xbd60fa40	-0.054926157
77	0x3d50e322	0.05099786
78	0xbb9a7e1e	-0.0047147414
79	0x3b8bbc14	0.004264364
80	0xbcf0be45	-0.029387603
81	0x3dac22a4	0.08405045
82	0xbe1104dc	-0.1416201
83	0x3e01a080	0.12658882
84	0xbcc2791a	-0.023739386
85	0x3cf02566	0.029314708
86	0xbce56bc3	-0.028005486
87	0x3d86450b	0.06556138
88	0x3be91e21	0.0071141873
89	0xbdd4c350	-0.103888154
90	0xbd520627	-0.0512754
91	0x3d92b71a	0.0716383
92	0x3d58a0a3	0.05288757
93	0xbcb2e014	-0.021835364
94	0x3dd84e3b	0.10561796
95	0xbb18d06f	-0.0023317595
96	0xbd47d94c	-0.048791215
97	0x3da120d6	0.07867591
98	0x3d8f2d15	0.069910206
99	0x3cd67d52	0.026182804
100	0xbdbcf1bb	-0.09225794
101	0x3d2ddc32	0.042446323
102	0xbdae2ee5	-0.08505038
103	0x3dcfd2a8	0.10147601
104	0xbc9bca6c	-0.01901742
105	0xbdb58102	-0.08862497
106	0xbd348d97	-0.044080343
107	0xbd175ec8	-0.036955625
108	0xbdab1d56	-0.08355205
109	0xbef869f9	-0.4851835
110	0xbd209ebc	-0.03921388
111	0xbce86ba1	-0.028371634
112	0xbd306f29	-0.04307476
113	0xbd96fbb9	-0.07372231
114	0xbbffc58a	-0.007805531
115	0xbd894ecc	-0.067044824
116	0xbcb34377	-0.021882756
117	0xbd582bb4	-0.052776054
118	0x3da65c0e	0.08123027
119	0x3ceac19d	0.028656775
120	0xbc94c725	-0.018161366
121	0x3cfb4ce1	0.030676307
122	0x3d5dfa61	0.054193858
123	0xbd4bff55	-0.04980405
124	0xbd1aa1d6	-0.037751995
125	0x3d667ca9	0.05627123
126	0x3ce5a266	0.02803154
127	0x3ae82553	0.0017711319
128	0x3daab340	0.083349705
129	0xbe15a280	-0.1461277
130	0x3dee12e7	0.11624699
131	0x3db27706	0.08714108
132	0xbd59a1b4	-0.053132728
133	0x3d8bc7cd	0.06825218
134	0x3de8ec6e	0.113732204
135	0x3d4e43be	0.050357573
136	0xbdbadb68	-0.0912388
137	0xbca11389	-0.019662635
138	0xbca8c402	-0.020601276
139	0x3d7bbc4a	0.061458863
140	0x3d9ea928	0.07747108
141	0xb9f264a3	-0.00046232817
142	0xbd51657b	-0.05112217
143	0x3c99a8ee	0.01875731
144	0x3c881894	0.016613282
145	0xbc8923b4	-0.016740657
146	0x3d6081d7	0.054811325
147	0x3be927d9	0.007115346
148	0xbd88fcc2	-0.06688835
149	0x3db8c1d4	0.09021345
150	0xbd2a164f	-0.04152518
151	0x3d50350c	0.05083184
152	0x3cf374b9	0.029718744
153	0xbddb1ffc	-0.1069946
154	0xbe905432	-0.28189236
155	0x3cdfb749	0.027309077
156	0xbd8dc618	-0.06922549
157	0x3cc03af5	0.023465613
158	0x3b2dd724	0.002652594
159	0x3b8aad50	0.0042320862
160	0x3da02e41	0.07821322
161	0xbd812256	-0.06305377
162	0xbdd1a19c	-0.10235903
163	0x3d96e42e	0.073677406
164	0xbc4df5da	-0.012570823
165	0x3d0f4e1b	0.034986597
166	0x3c29eb04	0.0103709735
167	0xbd5a8fe0	-0.053359866
168	0xbd06e975	-0.032937486
169	0xbd9b2d0a	-0.0757695
170	0xbcb3491f	-0.021885453
171	0x3d9aeb20	0.07564378
172	0xbd76fd47	-0.060300138
173	0x3dd31bc4	0.1030803
174	0x3b9b82e8	0.00474583
175	0xbdc7fb61	-0.097647436
176	0xbd4e51e7	-0.050371077
177	0xbdc87163	-0.09787252
178	0xbdd850b1	-0.10562266
179	0x3d8d3504	0.068948776
180	0x3c949801	0.018138887
181	0xbd9c2a5b	-0.07625266
182	0x3e3702d4	0.17872173
183	0xbb144301	-0.0022622945
184	0xbd39ee38	-0.0453932
185	0x3da77b56	0.08177821
186	0x3d319407	0.04335406
187	0xbd30cf21	-0.043166284
188	0xbd632605	-0.05545618
189	0xbca54ec3	-0.020179158
190	0xbd60e7fa	-0.05490873
191	0x3d3729b5	0.04471751
192	0xbd4f5bad	-0.05062454
193	0xbdb51e0d	-0.08843622
194	0x3d8c7691	0.06858552
195	0xbd250ad6	-0.040293537
196	0xbe005f8f	-0.12536453
197	0x3cf2cb22	0.029637877
198	0x3c446ae5	0.011988376
199	0x3d28d37b	0.04121731
200	0xbc694d99	-0.014239692
201	0xbc0b9343	-0.008518997
202	0x3d85600b	0.06512459
203	0xbe084c50	-0.13310361
204	0x3e0092b4	0.12555963
205	0xbc5ad5c0	-0.013356626
206	0xbde0bb5e	-0.109732375
207	0x3dfaae91	0.12240327
208	0xbcbae728	-0.022815302
209	0x3cb14bf8	0.02164267
210	0xbc4c129e	-0.012455611
211	0xbdd7109e	-0.10501216
212	0xbd04fb19	-0.032466028
213	0xbe9d4c06	-0.30722064
214	0x3dae7edb	0.085202895
215	0xbcae8b94	-0.02130679
216	0xbc95e836	-0.018299203
217	0x3d5b7008	0.05357364
218	0xba81ea7d	-0.0009911802
219	0xbe0aa9c0	-0.13541317
220	0x3ad6cf43	0.0016388673
221	0xbc16157e	-0.009160398
222	0xbda3d8c9	-0.08000333
223	0xbd48da71	-0.049036447
224	0x3e359438	0.17732322
225	0xbd5e8dd0	-0.05433446
226	0x3c683d02	0.014174702
227	0x3df154c9	0.117837496
228	0xbd0708bc	-0.032967314
229	0xbe176bf1	-0.1478727
230	0x3c3284e5	0.010895942
231	0xbe4dff1f	-0.20116852
232	0xbda1c113	-0.07898154
233	0xbcacccc6	-0.021093737
234	0x3da43d0c	0.08019456
235	0x3d756b5a	0.05991683
236	0x3d0bb84f	0.034111317
237	0x3e072a86	0.13199815
238	0x3d93aca3	0.07210662
239	0x3ddf149d	0.108926035
240	0x3df0a31d	0.117498614
241	0x3cdc2ad4	0.02687589
242	0xbe1e229a	-0.15442887
243	0xbdf4759f	-0.11936497
244	0x3d2d4451	0.04230148
245	0x3d007063	0.03135718
246	0xbc481396	-0.012211701
247	0xbcdc6a98	-0.026906297
248	0x3d5b6a76	0.053568326
249	0x3ccb25f8	0.024798378
250	0xba0a89fc	-0.00052848435
251	0x3cb561e5	0.022141406
252	0x3c8efceb	0.017454585
253	0xbd28c930	-0.041207492
254	0xbe9fdb77	-0.31222126
255	0x3cb802e5	0.022462318

net.6.weight f4 [1, 256]
0	0xbce7a756	-0.028278034
1	0xbd357fa6	-0.04431119
2	0x3d2670de	0.040634982
3	0x3c3b8db7	0.011447362
4	0x3cf8c0cf	0.030365376
5	0xb8a1670c	-7.696272e-05
6	0xbc189b02	-0.0093143005
7	0x3da7b760	0.08189273
8	0xbcfcd652	-0.030863915
9	0xbd4a3a4c	-0.049372002
10	0xbcf54df8	-0.029944405
11	0xbc004ecf	-0.007831289
12	0xbbc0798e	-0.0058738654
13	0x3d4f07c4	0.050544515
14	0xbcd32d72	-0.025778506
15	0xbd9772b5	-0.073949255
16	0x3d5b7154	0.053574875
17	0xbc73f0e0	-0.014888972
18	0x3c89e826	0.01683433
19	0xb6c1662c	-5.7637426e-06
20	0x3d9dccea	0.077051
21	0xbd42e743	-0.04758383
22	0xb874605e	-5.8263882e-05
23	0x3d4a3d36	0.04937478
24	0x3ced3756	0.02895705
25	0xbe21aee6	-0.15789375
26	0xbd530517	-0.051518526
27	0xbd78f837	-0.06078359
28	0x3d2b2c54	0.04179032
29	0x369c7492	4.662733e-06
30	0xbdaf0ac6	-0.08546977
31	0xbd5adc5a	-0.0534328
32	0xbbd9fdd5	-0.0066525736
33	0xbd3ff4f3	-0.04686446
34	0x3d2c50f5	0.042069394
35	0xbd30c034	-0.04315205
36	0x3d55eeda	0.05222974
37	0xbc6ecc5c	-0.01457509
38	0xbd5c23c4	-0.053745046
39	0x3d00d2b1	0.03145093
40	0x3d4ab967	0.04949322
41	0x3d1e693b	0.038674574
42	0xbc226090	-0.009910718
43	0xbd285c0f	-0.04110342
44	0x3cbf6073	0.02336142
45	0x3c5e0cfa	0.013552899
46	0xbe444041	-0.19165136
47	0xbd67f53b	-0.056630354
48	0xbc919ab1	-0.017773958
49	0x3d1dce50	0.038526833
50	0x3b2ec232	0.0026666042
51	0x3da9ee2f	0.08297383
52	0x38405675	4.5856887e-05
53	0xbd1f983d	-0.038963545
54	0xbd3fe70d	-0.046851207
55	0xbd38ced3	-0.045119118
56	0x3d311bd6	0.043239437
57	0xbd5a971e	-0.053366773
58	0xbbfd634e	-0.0077327853
59	0xbd214d76	-0.039380513
60	0x3c5178ae	0.01278512
61	0xbcd11694	-0.025523461
62	0xbdbfbf02	-0.09362604
63	0x3d89564d	0.06705914
64	0xbd1c0c80	-0.03809786
65	0xbd31bafe	-0.04339122
66	0xbd280206	-0.041017555
67	0xbd66618e	-0.05624538
68	0x3ced7b67	0.028989507
69	0x3b8c8530	0.004288338
70	0xbc60f40e	-0.013730062
71	0x3d288109	0.041138683
72	0xbccbeae4	-0.024892278
73	0x3db2a1bf	0.08722257
74	0x3c7904b6	0.015198877
75	0xbcdfd3fe	-0.027322765
76	0x3d471b24	0.048609868
77	0xbd1048f6	-0.03522583
78	0x3deea637	0.11652797
79	0xbc220e90	-0.009891167
80	0x3b05c7ee	0.0020413357
81	0xbd962e2c	-0.07333025
82	0xbd5d0a6a	-0.05396501
83	0x3d9a714b	0.0754114
84	0x3d1bc4da	0.03802953
85	0x3d39a5de	0.0453242
86	0xbd3ff7d1	-0.046867196
87	0xbd149254	-0.036272362
88	0xbc7e67fe	-0.015527723
89	0x3d91bed1	0.071164735
90	0xbd22467a	-0.039617993
91	0xbc87cb23	-0.016576355
92	0xbcacba42	-0.021084908
93	0xbd917e3f	-0.07104158
94	0xbd854758	-0.06507748
95	0xbd8b7165	-0.06808738
96	0x3c9b8e18	0.018988654
97	0xb623849a	-2.4366077e-06
98	0xbb8ccab2	-0.004296624
99	0xbdc0de37	-0.09417384
100	0x3dad35cd	0.08457527
101	0xbd4d37e8	-0.050102144
102	0xbd9f6cac	-0.077843994
103	0xbc9ca119	-0.019119786
104	0x3d806c59	0.06270666
105	0x3d21be5c	0.03948818
106	0x3d469d32	0.048489757
107	0x3d9fe646	0.07807593
108	0x3e5863d5	0.21131833
109	0x384cd91a	4.883958e-05
110	0x3d5c7a83	0.053827774
111	0xbcad28c2	-0.021137599
112	0x3c54f97b	0.012998934
113	0x3d4144d1	0.04718477
114	0x3c5bff4d	0.013427568
115	0x3d0a395e	0.033746116
116	0xb81ac932	-3.690384e-05
117	0x3d9db632	0.077007666
118	0xbd24696c	-0.0401396
119	0xbc3009c1	-0.010744513
120	0xbcc9e730	-0.024646372
121	0x3d166bf9	0.036724064
122	0xbd383c34	-0.04497929
123	0x3d49eb58	0.049296707
124	0xbdd5c810	-0.104385495
125	0xbd7842b4	-0.060610488
126	0xbc2b8591	-0.010468856
127	0xbd11a3d2	-0.03555662
128	0xbd02c161	-0.0319227
129	0x3d2c6635	0.04208966
130	0xb88f9dd6	-6.8481706e-05
131	0xbd7fc63b	-0.062444907
132	0x3c5f4933	0.013628292
133	0xbd8f99c2	-0.07011749
134	0xbd9c6314	-0.07636085
135	0xbd5d59e1	-0.054040793
136	0x3d0150d1	0.031571213
137	0x3d94a840	0.07258654
138	0x3cc405fa	0.023928631
139	0xbc466dac	-0.012111109
140	0xbdc8de1d	-0.0980799
141	0x3c296c1c	0.010340717
142	0x3b010d8d	0.0019691915
143	0xbc62a317	-0.013832829
144	0xbc560bac	-0.013064306
145	0xbc9ca3cc	-0.019121073
146	0xbd06c572	-0.032903142
147	0xbce7493d	-0.028233165
148	0xbd9219d3	-0.07133832
149	0xbde565da	-0.11201067
150	0x3d1749bd	0.036935557
151	0xbd461ab6	-0.048365317
152	0xbd4b33b9	-0.049609873
153	0x3bc182a3	0.0059054657
154	0x378bee32	1.668101e-05
155	0x3d613058	0.054977745
156	0x3d8760e0	0.06610274
157	0x3d82fd76	0.06396
158	0xbb5317f2	-0.0032210317
159	0x3d8004e6	0.06250934
160	0xbc31accd	-0.010844422
161	0xb7fba597	-2.999864e-05
162	0x3c961c55	0.018324057
163	0xbd9b383a	-0.07579084
164	0x3c26a7c2	0.0101718325
165	0xbd5a971d	-0.05336677
166	0xbe38b536	-0.18037876
167	0xbca1a4d2	-0.019731913
168	0x3cbe3428	0.02321823
169	0x38aad82c	8.146497e-05
170	0x3c830f4c	0.015998505
171	0x3ccbf5cc	0.024897479
172	0x3dc02516	0.093820736
173	0xbd9538a6	-0.072861955
174	0xbcbc22ff	-0.022965906
175	0xbd64ba79	-0.055841897
176	0x3dd7826b	0.10522922
177	0xb83a3b85	-4.4401288e-05
178	0xbd48e6ec	-0.04904835
179	0xbc8ece7c	-0.017432444
180	0xbd3a3b47	-0.045466688
181	0xbd67f54e	-0.056630425
182	0xb88baed6	-6.660602e-05
183	0xb790f46c	-1.7279956e-05
184	0x3d0d8ece	0.034560017
185	0xbd5406b1	-0.051764194
186	0x3d985fb0	0.07440126
187	0x3da48508	0.08033186
188	0xbd572181	-0.052522186
189	0xbac9c4e5	-0.0015393762
190	0xbd5128ca	-0.05106429
191	0xbd00d293	-0.03145082
192	0x3e07916e	0.13239071
193	0x3d4d4521	0.050114755
194	0xbda53577	-0.08066838
195	0x3b2a7de5	0.002601498
196	0x3dc67c7d	0.09691713
197	0xbd14d8a4	-0.036339417
198	0x3d0008c1	0.03125835
199	0xbd2a7bf9	-0.041622136
200	0x3d54002c	0.051757976
201	0x3e040f43	0.12896447
202	0xbce9b59a	-0.028528977
203	0x3e0bd4a8	0.1365534
204	0xbd9aa232	-0.075504676
205	0x3d183918	0.037163824
206	0x3cafdc56	0.021467369
207	0xb71f332e	-9.489055e-06
208	0x3da45eb2	0.08025874
209	0x3c35e7ea	0.011102656
210	0xbc6b0a58	-0.014345728
211	0xb89bfe3b	-7.43833e-05
212	0xbc7848b4	-0.0151540525
213	0xb87c17e3	-6.0103728e-05
214	0x3d6b0a90	0.05738312
215	0x3d99502f	0.07485997
216	0xba8fe981	-0.0010979624
217	0xbc73e2b4	-0.014885593
218	0xbdad9a86	-0.08476739
219	0x3db471dd	0.0881078
220	0x3d36e2a1	0.044649724
221	0x3d85c8fd	0.06532476
222	0x3d83a0b2	0.064271346
223	0x3d000d0e	0.03126245
224	0x3dd96314	0.10614601
225	0x3c911c86	0.017713796
226	0x3cda01dc	0.026612215
227	0xbd91a47c	-0.07111451
228	0x3cc2a021	0.023757996
229	0x3d809538	0.06278461
230	0x3e2fc328	0.1716429
231	0xbd1e6565	-0.038670916
232	0xbc8eb090	-0.017418176
233	0xbd257e04	-0.04040338
234	0xbd12e5dc	-0.035863742
235	0xbd6efdf8	-0.058347672
236	0xbd524b49	-0.05134133
237	0xbcd5dfa8	-0.026107624
238	0xbccca7dc	-0.024982385
239	0xbbf9edcf	-0.007627226
240	0xbe361bba	-0.17784014
241	0xbd0b5e81	-0.034025673
242	0x3dcc1afd	0.09966085
243	0x3ced01c0	0.028931499
244	0xbd4a2992	-0.04935605
245	0xbd1b4176	-0.037904225
246	0xbd746926	-0.05967059
247	0xbd27e2e7	-0.040987875
248	0xbd549fa0	-0.051910043
249	0x3db5d69d	0.08878825
250	0x3d88fd37	0.06688922
251	0x3c97aaa6	0.018513989
252	0xbde4cbf2	-0.11171712
253	0x3d748158	0.059693664
254	0xbbfb78a7	-0.007674295
255	0xbd612990	-0.054971278
