hnn_models/checkpoints/hnn_cr3bp_l1_mixed_v3.pt (torch, 538917 bytes, 9 tensors)

state_mean f4 [6]
0	0x3ead4be7	0.3384697
1	0x3ccaa2c7	0.024735821
2	0xbcbf2a0a	-0.023335475
3	0xbdd781c9	-0.105228014
4	0x3eb2cc8d	0.34921685
5	0xbc221872	-0.0098935235

state_std f4 [6]
0	0x3f097bc7	0.53704494
1	0x3eaaf769	0.33391884
2	0x3d4bccc8	0.04975584
3	0x3f42da61	0.7611447
4	0x3f5c0e10	0.8595896
5	0x3de4202c	0.11138949

net.0.weight f4 [256, 6]
0	0x3e94f164	0.29090416
1	0xbdd7b05b	-0.10531684
2	0xbe50501f	-0.20343064
3	0xbeb6bd0f	-0.35691115
4	0xbef1a0b3	-0.47192916
5	0x3c6bce08	0.014392383
6	0x3e845f60	0.25854015
7	0x3e785805	0.24252327
8	0x3d9bd83a	0.07609601
9	0xbe6ecbc0	-0.23319912
10	0x3e85becf	0.26122138
11	0xbe99100b	-0.29895052
12	0x3e96bd57	0.2944133
13	0xbdc2c4a3	-0.09510162
14	0x3eb496dc	0.35271347
15	0x3e22254f	0.15834545
16	0x3eafffe4	0.34374917
17	0x3e440a0e	0.1914446
18	0x3f2cc97d	0.67494947
19	0xbe4fee0e	-0.20305654
20	0x3e0e6e20	0.13909197
21	0xbaebd379	-0.0017992101
22	0x3d827907	0.063707404
23	0xbccb1440	-0.02478993
24	0x3eedaea7	0.46422312
25	0xbe86d17e	-0.26331705
26	0x3e876db3	0.2645088
27	0xbdbd36ba	-0.09238954
28	0x3ed1e2ee	0.40993446
29	0x3e49c58c	0.19704264
30	0x3f074911	0.52845865
31	0xbe7ff436	-0.24995503
32	0x3e8ffa9b	0.28120884
33	0x3da74aab	0.08168539
34	0x3cd53064	0.026024051
35	0x3d93618c	0.0719634
36	0x3e0ccac3	0.13749222
37	0x3ed79588	0.4210627
38	0xbe977617	-0.29582283
39	0xbebeff18	-0.37303996
40	0x3e996a67	0.2996399
41	0xbec6233b	-0.38698754
42	0xbeacf008	-0.3377688
43	0x3eefff5e	0.46874517
44	0x3e95fac9	0.29292896
45	0x3e5013d4	0.20320064
46	0xbcbc8881	-0.023014309
47	0x3dbdb5a1	0.092631586
48	0xbed90394	-0.42385542
49	0x3ec30871	0.38092378
50	0x3ec072ee	0.37587684
51	0xbc8675ab	-0.01641353
52	0xbdcaad7d	-0.098963715
53	0xbe644e3c	-0.22295469
54	0xbe964007	-0.29345724
55	0x3e573dc0	0.2101965
56	0xbee22beb	-0.44174132
57	0xbd32bd5a	-0.04363761
58	0x3e55ffdd	0.20898385
59	0xbe544b84	-0.20731932
60	0x3f292687	0.66074413
61	0xbe34b7cc	-0.17648238
62	0x3ea847bf	0.32867238
63	0x3e69d7fc	0.22836298
64	0xbdf24c69	-0.1183098
65	0xbc76ac20	-0.015055686
66	0xbf146539	-0.57966954
67	0xbf329ce1	-0.6977063
68	0xbb2a6091	-0.00259975
69	0xbdced138	-0.10098499
70	0x3bc385b7	0.005966868
71	0xbd2efa53	-0.042719197
72	0x3e209170	0.1568048
73	0xbe5f57b2	-0.21810797
74	0xbe1ca9f4	-0.15299207
75	0xbe97dc72	-0.29660374
76	0xbe92593c	-0.28583705
77	0x3e16531b	0.1468014
78	0xbd943d29	-0.07238228
79	0x3df5204d	0.119690515
80	0x3ec32038	0.38110518
81	0xbdda8231	-0.10669363
82	0x3eb4734c	0.35244215
83	0xbe27cb5e	-0.16386172
84	0x3e88e84a	0.26739722
85	0xbe0c8285	-0.13721664
86	0xbe8046e8	-0.25054097
87	0x3e265d18	0.1624645
88	0xbe775fca	-0.24157634
89	0xbe273df9	-0.16332234
90	0xbea4e267	-0.3220398
91	0x3e2d2861	0.16909935
92	0xbe11f9e9	-0.1425549
93	0xbe943424	-0.2894603
94	0x3dffcb20	0.12489915
95	0xbe5ce49c	-0.21571583
96	0x3e8e15d3	0.27751026
97	0xbddf5c65	-0.10906295
98	0x3cf90e8c	0.030402444
99	0x3de29d14	0.110651165
100	0x3e369137	0.17828833
101	0xbd6794d0	-0.056538403
102	0x3f121cff	0.57075495
103	0x3ef27b83	0.47359857
104	0xbe846923	-0.25861463
105	0x3e1f711f	0.15570496
106	0xbe448f80	-0.19195366
107	0xbd469484	-0.04848148
108	0x3edad0f8	0.42737556
109	0x3ea9b197	0.33143303
110	0x3ad20bdd	0.0016025264
111	0x3e91da2e	0.2848677
112	0xbbfd5996	-0.0077316267
113	0xbe24f45f	-0.16108845
114	0xbc771128	-0.015079774
115	0x3df3724b	0.11887034
116	0x3e66aabb	0.22526066
117	0xbd3a65eb	-0.045507353
118	0xbee42362	-0.44558245
119	0x3dca254b	0.09870394
120	0x3eb31529	0.3497708
121	0x3dd2eaa8	0.102986634
122	0xbeb26ceb	-0.34848723
123	0x3ca24254	0.019807018
124	0xbda35408	-0.07975012
125	0xbe32da86	-0.17466173
126	0xbcfabf5c	-0.030608825
127	0xbbebd74c	-0.0071972962
128	0xbecac58a	-0.39603835
129	0x3ea5e411	0.32400563
130	0xbeddd072	-0.43323094
131	0xbe959bba	-0.29220372
132	0x3e7f4a5e	0.24930713
133	0xbf08c910	-0.534318
134	0x3ec2b3e6	0.38027877
135	0xbec1a02e	-0.3781752
136	0xbd1a7a07	-0.03771403
137	0xbdb105c1	-0.086436756
138	0x3f0cdf7f	0.5502853
139	0xbebd8d67	-0.37021944
140	0x3ea3bb1e	0.31978697
141	0x3ace52b4	0.00157412
142	0xbddfc0a3	-0.109254144
143	0xbe43caa4	-0.1912027
144	0xbecae417	-0.39627144
145	0x3e24586a	0.16049352
146	0x3c75cb2f	0.015002056
147	0x3e5efb35	0.21775515
148	0x3eb9d610	0.3629613
149	0x3e3c3ce4	0.18382603
150	0xbe3c7284	-0.18403059
151	0xbec48099	-0.38379362
152	0xbdcce0ff	-0.10003852
153	0xbebd329c	-0.36952674
154	0xbe4b5599	-0.19856872
155	0x3ea6f60b	0.3260959
156	0x3ecba6d3	0.39775714
157	0x3e9969e2	0.29963595
158	0x3dfe854b	0.12427767
159	0xbea71040	-0.32629585
160	0x3e1f8e47	0.15581618
161	0x3d588540	0.052861452
162	0xbedf7802	-0.43646246
163	0xbba0ccae	-0.004907212
164	0xbe59713e	-0.21234605
165	0x3e33dc5d	0.1756453
166	0x3eaf2cc2	0.34213835
167	0x3e79eabe	0.24405953
168	0xbec3a4ee	-0.3821177
169	0x3eecc4ac	0.462438
170	0xbe38e062	-0.18054345
171	0xbe05aa84	-0.13053328
172	0xbe3a5c52	-0.1819928
173	0xbe76dec7	-0.2410842
174	0x3e3a78b7	0.18210112
175	0xbebdf065	-0.3709747
176	0xbdb1329b	-0.0865223
177	0x3ecd2581	0.40067676
178	0xbe86352f	-0.2621245
179	0xbeb56fc8	-0.35436845
180	0xbd14475e	-0.036200874
181	0x3ecdce27	0.40196344
182	0xbe1e9249	-0.15485491
183	0xbe20092a	-0.15628496
184	0xbe939f3c	-0.28832424
185	0xbea4fb88	-0.32223153
186	0xbe6306ef	-0.22170614
187	0x3ead68b7	0.33868954
188	0xbe6bc627	-0.23024808
189	0xbed8e5e7	-0.42362902
190	0x3ece6f23	0.40319166
191	0xbe1fa584	-0.15590483
192	0x3eb23713	0.34807643
193	0x3e87de78	0.26536918
194	0xbd1837f5	-0.03716274
195	0x3e4027c3	0.18765168
196	0xbe82250a	-0.25418884
197	0x3be3fd6c	0.0069577005
198	0x3ba439af	0.005011759
199	0xbf003768	-0.50084543
200	0x3eb4587a	0.35223752
201	0x3e042d82	0.12907985
202	0xbe720451	-0.23634459
203	0xbdc9ee0d	-0.09859858
204	0xbf1f4ca3	-0.62226313
205	0xbe327761	-0.17428352
206	0x3dec311d	0.11532805
207	0x3cb7656a	0.022387225
208	0x3e37d362	0.1795173
209	0xbeb4ae31	-0.35289147
210	0xbc3149d6	-0.0108208265
211	0x3e4377a8	0.19088614
212	0x3baf114e	0.005342639
213	0x3e383531	0.17989041
214	0xbef4d633	-0.4781967
215	0xbea33397	-0.31875297
216	0x3d852cbd	0.06502674
217	0xbf2a9044	-0.6662638
218	0x3e58f743	0.21188073
219	0xbea0cdc5	-0.3140699
220	0x3e519e72	0.20470598
221	0x3df9e9a7	0.12202769
222	0xbd2937e0	-0.041313052
223	0xbec0e18d	-0.37672082
224	0x3db0a575	0.086253084
225	0x3ea8374d	0.3285469
226	0xbe3e5e0a	-0.1859056
227	0x3e7c72f5	0.24653228
228	0x3ecf5813	0.40496883
229	0x3c729e73	0.014808285
230	0xbe53da31	-0.20688702
231	0xbe34ef18	-0.17669332
232	0x3d0cca90	0.034372866
233	0xbde684a6	-0.112557694
234	0x3eb52fd9	0.35388067
235	0x3e92f677	0.28703663
236	0x3ec7a077	0.38989612
237	0xbe3938d9	-0.18088092
238	0x3e3286f3	0.17434292
239	0x3e91fa66	0.2851135
240	0x3cdd9d65	0.02705259
241	0xbdf62e86	-0.120205924
242	0x3e03db21	0.1287656
243	0x3e6e0d29	0.23247208
244	0xbe8d6f9a	-0.27624208
245	0xbb317c0e	-0.0027082
246	0x3daf0631	0.08546103
247	0x3ea774c4	0.32706273
248	0xbe8ee198	-0.2790649
249	0x3ecf7433	0.4051834
250	0x3e3116bb	0.17293827
251	0x3e96efa1	0.29479697
252	0xbecf0e11	-0.4044042
253	0xbdfc78a2	-0.123276964
254	0xbeb3bdbc	-0.35105693
255	0x3ebe3826	0.37152213

net.0.bias f4 [256]
0	0xbf0c5b80	-0.5482712
1	0xbe6f0b47	-0.23344146
2	0x3e8114a2	0.25211054
3	0x3e951b21	0.2912226
4	0xbed5050c	-0.41605413
5	0xbe166d89	-0.14690222
6	0x3d73227f	0.05935907
7	0xbec289db	-0.379958
8	0x3c38eed0	0.011287406
9	0xbedb38c6	-0.42816752
10	0xbca1cb7c	-0.01975035
11	0xbd7a9aa3	-0.06118263
12	0x3dcbc16f	0.09949004
13	0xbed60ec5	-0.41808143
14	0xbe6c1804	-0.23056036
15	0xbe8b1c7f	-0.27170178
16	0x3ef2196d	0.47285023
17	0x3e298d34	0.16557771
18	0xbd29207b	-0.04129074
19	0x3e1affb6	0.15136608
20	0xbc418f08	-0.011813886
21	0xbca74b57	-0.020421667
22	0x3ec638f6	0.38715333
23	0x3dcc90f4	0.09988585
24	0xbeb39c26	-0.3508007
25	0xbe98159a	-0.2970398
26	0x3e0cd416	0.1375278
27	0xbe5804a3	-0.21095519
28	0xbe6b5f0e	-0.22985479
29	0xbd31d64b	-0.043417256
30	0xbe401c74	-0.18760854
31	0xbeed4435	-0.463411
32	0x3ea961bf	0.33082387
33	0x3b911ddc	0.0044286083
34	0x3ecc2b46	0.39876765
35	0x3e757155	0.23969014
36	0x3ed780cd	0.42090455
37	0xbe7b3276	-0.24530968
38	0x3eaeca8c	0.34138906
39	0x3ebbea8a	0.36702377
40	0xbeb3a645	-0.3508779
41	0xbec087fc	-0.37603748
42	0xbeddb50a	-0.43302184
43	0x3e214e77	0.15752588
44	0x3eaaef88	0.33385873
45	0xbe08cd0a	-0.13359466
46	0xbea8f784	-0.3300134
47	0x3e93a939	0.28840044
48	0x3ef2f5c1	0.4745312
49	0xbb9b43f6	-0.004738326
50	0x3efadea8	0.48997998
51	0xbee26b00	-0.4422226
52	0xbeb098cd	-0.34491578
53	0x3e93305d	0.28747836
54	0x3e9ba030	0.3039565
55	0xbe0e9db7	-0.13927351
56	0xbe8e20ec	-0.27759492
57	0xbedf8891	-0.4365888
58	0xbd73b31a	-0.059496976
59	0xbe42e10c	-0.19031161
60	0xbdc7c6d8	-0.09754723
61	0xbe859ad9	-0.26094702
62	0x3ce0390b	0.02737095
63	0x3eb7fffc	0.35937488
64	0x3ebd5387	0.3697779
65	0xbe7eab1a	-0.24869958
66	0x3de1a061	0.11016918
67	0x3c981843	0.018566256
68	0xbe16ad81	-0.14714624
69	0x3cf58499	0.029970454
70	0xbd97eb85	-0.07417969
71	0x3e875abd	0.26436415
72	0xbe8ed6cb	-0.2789825
73	0xbe2253b7	-0.15852247
74	0xbe39089d	-0.18069692
75	0xbeda7a58	-0.42671466
76	0xbe74d30a	-0.2390863
77	0xbe8e4e1a	-0.27793962
78	0x3e2dfb2a	0.16990343
79	0x3e4f90bb	0.20270054
80	0xbe1042fe	-0.14088055
81	0xbdc895c3	-0.0979419
82	0xbc1c682d	-0.009546322
83	0xbd5f2eb3	-0.054487895
84	0x3ed0c888	0.40777993
85	0x3eaff1e8	0.34364247
86	0x3ed97b09	0.4247668
87	0x3ecdcf14	0.4019705
88	0xbe9b78f0	-0.30365705
89	0x3e2f8643	0.1714106
90	0x3eaed4b9	0.3414667
91	0xbeb33d7f	-0.35007855
92	0xbe32885b	-0.17434828
93	0xbe83c7f8	-0.25738502
94	0x3ed384b1	0.41312173
95	0x3ec9a967	0.39387056
96	0xbee94856	-0.45563
97	0xbebf6c65	-0.37387386
98	0xbe0433bb	-0.12910359
99	0xbebb489d	-0.36578837
100	0x3eeecd68	0.46641088
101	0x3e307ba6	0.17234668
102	0x3e949d6b	0.2902635
103	0xbda4192f	-0.08012616
104	0xbe9869bf	-0.29768178
105	0xbe1c12cb	-0.15241544
106	0x3e3b199e	0.18271491
107	0x3e242b7a	0.1603221
108	0x3e5b435b	0.21412413
109	0x3c3c39ca	0.011488387
110	0x3e43b531	0.19112088
111	0xbd919a46	-0.071095034
112	0x3eb893da	0.36050302
113	0xbe977a22	-0.29585367
114	0x3ef4a959	0.47785452
115	0x3e8874e6	0.26651686
116	0xbdf18d53	-0.117945336
117	0x3e591f26	0.21203288
118	0x3dc8411f	0.09778046
119	0x3c9e980b	0.01935961
120	0xbea6cec4	-0.32579625
121	0x3e07d3a8	0.13264334
122	0xbe06c2aa	-0.13160196
123	0x3eea8960	0.45807934
124	0x3ebe1362	0.37124163
125	0x3e12f616	0.14351687
126	0xbeb67ce2	-0.35642153
127	0xbe0003e9	-0.12501492
128	0x3d58fbdc	0.052974567
129	0x3eca1ef4	0.3947674
130	0x3c948509	0.018129842
131	0xbcdfa653	-0.02730099
132	0x3eb04317	0.34426185
133	0x3ed3acfc	0.41342914
134	0x3e96730e	0.29384655
135	0xbeb0b347	-0.34511778
136	0xbd9165dc	-0.07099506
137	0xbe85b76f	-0.2611651
138	0xbe99d855	-0.3004786
139	0x3ead31c6	0.33827037
140	0x3e88412f	0.2661223
141	0xbe33b9f7	-0.17551409
142	0xbeb29eaa	-0.34886676
143	0x3e986204	0.2976228
144	0x3e760113	0.24023847
145	0xbd8ad784	-0.067793876
146	0xbf05aa95	-0.5221341
147	0x3eb3f755	0.35149637
148	0x3e799dcf	0.24376605
149	0xbe85f4c7	-0.26163313
150	0x3df24977	0.118304186
151	0x3eaaab44	0.3333379
152	0x3e9e9554	0.30973303
153	0x3d59df94	0.053191736
154	0xbda5c595	-0.080943264
155	0x3ebdb8ee	0.37055153
156	0xbe921a14	-0.2853552
157	0x3c85d32d	0.016336048
158	0xbdca30fa	-0.09872623
159	0x3eec32c5	0.46132484
160	0xbe12d4b9	-0.1433896
161	0x3ecdeb39	0.40218523
162	0x3e21dbec	0.1580655
163	0x3ea514dd	0.3224248
164	0xbee2eff3	-0.44323692
165	0xbe50f2c9	-0.20405115
166	0x3edd2f80	0.43200302
167	0xbee0f4b9	-0.4393671
168	0xbcd460f8	-0.025925145
169	0x3ec6493e	0.38727754
170	0xbe308863	-0.17239527
171	0xbed93c93	-0.42429027
172	0x3e13dc4a	0.14439502
173	0xbd917561	-0.071024664
174	0x3ea5f4cb	0.32413325
175	0xbe434940	-0.19070911
176	0xbe54974d	-0.20760842
177	0xbe9c2cc1	-0.30502895
178	0x3e580375	0.21095069
179	0xbe15de11	-0.14635493
180	0xbebbbc52	-0.36667114
181	0xbe0ede0d	-0.13951893
182	0x3ea05020	0.3131113
183	0x3ecd618e	0.4011349
184	0x3eef8b1c	0.4678582
185	0xbe9f86d7	-0.31157562
186	0x3ceb3f73	0.028716778
187	0xbd003a42	-0.03130556
188	0xbef53112	-0.47889
189	0xbec9718f	-0.3934445
190	0x3c4f26fb	0.012643571
191	0xbea66cd5	-0.32504907
192	0x3ee43deb	0.4457849
193	0x3d0ab393	0.03386266
194	0x3d302786	0.043006442
195	0x3e68d8f9	0.22739018
196	0x3e817b9f	0.25289628
197	0x3e14cd08	0.14531338
198	0x3ef1dc38	0.47238326
199	0x3ebb7540	0.36612892
200	0xbe6706c9	-0.22561182
201	0x3da75dff	0.08172225
202	0x3d7dc999	0.061959837
203	0x3c65dadc	0.014029231
204	0xbe579f02	-0.2105675
205	0xbe91da0b	-0.28486666
206	0xbed79633	-0.4210678
207	0xbe127e80	-0.14306068
208	0xbe9f88da	-0.31159097
209	0xbdc9a466	-0.0984581
210	0x3dbbf2a4	0.091771394
211	0xbe9f9af0	-0.31172895
212	0x3e01529d	0.1262917
213	0x3e1c7a61	0.15281059
214	0x3ef4ea9b	0.4783524
215	0x3ef2ff9d	0.47460642
216	0xbe1ee7bf	-0.15518092
217	0x3d11f4a6	0.035633706
218	0xbee773b0	-0.4520545
219	0xbe551c01	-0.20811464
220	0xbe01c49f	-0.12672661
221	0xbe310921	-0.17288639
222	0x3e919a07	0.28437826
223	0x3ece1f7c	0.40258396
224	0xbe69f665	-0.22847898
225	0xbd252902	-0.04032231
226	0xbddf7c1c	-0.10912344
227	0x3e167bf5	0.14695723
228	0x3ee554a9	0.44791153
229	0xbed46254	-0.41481268
230	0x3eb91560	0.3614912
231	0x3eb52253	0.3537775
232	0x3eb6d23e	0.35707277
233	0x3efe5475	0.4967381
234	0x3eda4627	0.42631647
235	0xbebc1bc6	-0.3673994
236	0xbec46b2a	-0.3836301
237	0xbed1e8cc	-0.40997922
238	0x3eccb479	0.3998144
239	0x3e7cd100	0.24689102
240	0xbed91cec	-0.42404878
241	0x3ec1588b	0.37762865
242	0xbdd57321	-0.1042235
243	0xbe10ee50	-0.14153409
244	0x3e28f6a9	0.16500343
245	0x3e6551d8	0.22394502
246	0xbe3cfd82	-0.1845608
247	0x3e5fd8b6	0.21860012
248	0x3e6ae6ec	0.22939652
249	0xbe14624b	-0.14490621
250	0x3dba4aa0	0.09096265
251	0x3eb3468d	0.35014763
252	0x3ea0c89d	0.31403056
253	0xbd3605f9	-0.04443929
254	0x3e2463bb	0.16053669
255	0x3ebe1f5f	0.3713331

net.2.weight f4 [256, 256]
0	0xbdbca7a4	-0.092116624
1	0x3d43e9fb	0.047830563
2	0xbcd303fc	-0.025758736
3	0xbda2bb51	-0.07945884
4	0x3c7978aa	0.015226522
5	0xbccfae20	-0.025351584
6	0x3c1f7f94	0.009735007
7	0xbcac7aba	-0.021054614
8	0x3d7bbcec	0.061459467
9	0x3c541a24	0.012945686
10	0xbd3eb235	-0.04655667
11	0x3d6fa335	0.058505256
12	0x3cd837bc	0.026393764
13	0xbc8d374a	-0.017238278
14	0x3c913add	0.017728264
15	0x3d50da9e	0.05098974
16	0x3ce15c77	0.027509911
17	0xbc5a5fa0	-0.013328463
18	0xbd1ca955	-0.038247425
19	0xbd4be93f	-0.049782988
20	0x3d1cdcd9	0.038296554
21	0xbd04e91e	-0.03244888
22	0xbc8a4451	-0.016878279
23	0x3b2310c3	0.0024881817
24	0x3c04a5cb	0.008096169
25	0x3d06bed6	0.03289684
26	0xbd551996	-0.052026354
27	0x3c914be4	0.017736383
28	0xbd12bc73	-0.03582425
29	0xbd519710	-0.051169455
30	0x3bb62e92	0.005559751
31	0xbd137e59	-0.036009166
32	0x3d521330	0.05128783
33	0xbcaf5baf	-0.021406023
34	0xbcb16740	-0.021655679
35	0xbc7e477d	-0.015519974
36	0x3d339d2f	0.043851074
37	0x3a60a81e	0.0008569973
38	0xba0fc81e	-0.0005484837
39	0x3d32cc0b	0.04365162
40	0x3d355c79	0.044277642
41	0x3c5c15f0	0.013432965
42	0xbd159ec0	-0.03652835
43	0xbcebf607	-0.028803838
44	0xbd86bd81	-0.06579114
45	0xbabeb4bc	-0.0014549713
46	0xbc576945	-0.013147657
47	0x3ccb6637	0.024829013
48	0xbd3c536a	-0.045977987
49	0x3b129dc4	0.0022371868
50	0x3d072189	0.032990966
51	0xbc0e06a8	-0.008668579
52	0x3c06bcf5	0.008223762
53	0xbc5755de	-0.013143031
54	0x3d78151e	0.060567014
55	0x3d820850	0.06349242
56	0x3cf6761c	0.030085616
57	0xbc14a15d	-0.009071675
58	0x3da203e5	0.07910899
59	0xbd67c3c7	-0.056583192
60	0xbd3efdf9	-0.046628926
61	0xbd04ba73	-0.032404374
62	0x3d39020d	0.04516797
63	0x3cf34691	0.029696735
64	0xbb2f25d1	-0.0026725421
65	0xbb8e2acf	-0.0043385993
66	0xbcc6629f	-0.024216948
67	0xbc935b77	-0.01798795
68	0x3d1af847	0.037834432
69	0x3a7a1c87	0.0009540994
70	0xbd170923	-0.036873948
71	0xbbb3c166	-0.0054857014
72	0x3d521bc7	0.05129602
73	0x3cb8db42	0.022565488
74	0x3d272701	0.04080868
75	0x3cbc12a8	0.022958115
76	0xbd4bc58d	-0.049748946
77	0x3d2c3720	0.04204476
78	0xbde8598e	-0.11345206
79	0xbd07d6f7	-0.03316399
80	0x3c5d11e8	0.013493039
81	0xbd341e4a	-0.0439742
82	0xbd4f6a59	-0.05063853
83	0xbcfcb12d	-0.030846203
84	0xbd0735a8	-0.033010155
85	0xbcebb8c2	-0.028774623
86	0xbbb69685	-0.0055721425
87	0xbc68bf69	-0.014205792
88	0x3d779589	0.060445342
89	0xbd2337d7	-0.039848175
90	0xbca7aa13	-0.02046684
91	0x3d869e0f	0.06573116
92	0x3bfcdde9	0.0077168834
93	0x3c812dee	0.015768971
94	0xbba5a432	-0.005054974
95	0x3bc04014	0.0058670137
96	0xbdbe2064	-0.09283522
97	0x3d4043b0	0.04693955
98	0x3d55fc32	0.052242465
99	0x3d429f82	0.0475154
100	0x3d972bbe	0.0738139
101	0x3d29e1c4	0.041475073
102	0xbd6a8107	-0.057251956
103	0xbd0172d3	-0.031603646
104	0x3c283fc4	0.010269109
105	0xbc9314b0	-0.0179542
106	0x3d675315	0.056475718
107	0x3cd16302	0.025559906
108	0x3d64d8d0	0.05587083
109	0x3d545d8d	0.05184703
110	0xbd63d370	-0.055621564
111	0xbd471ad6	-0.048609577
112	0xbcb3a4d9	-0.021929191
113	0xbdc8ad12	-0.097986355
114	0x3d9609ea	0.0732611
115	0x3cbc59fa	0.022992123
116	0x3d1ee8a4	0.038796082
117	0xbd85ade6	-0.06527309
118	0x3b8e5117	0.0043431628
119	0xbd3a65c3	-0.045507204
120	0xbc7751b4	-0.015095163
121	0x3c8d37bd	0.017238492
122	0xbd4b913e	-0.04969906
123	0x3cd7852f	0.026308624
124	0xbcb35738	-0.021892175
125	0xbd3b5f4f	-0.04574519
126	0xbe12d951	-0.14340712
127	0xbc1d7a09	-0.009611615
128	0x3d15c0bd	0.036560763
129	0xbbce5b3f	-0.0062974985
130	0x3d1b59ab	0.03792731
131	0xbb083c8f	-0.002078805
132	0xbd3b9731	-0.045798484
133	0x3d17426a	0.03692857
134	0xbd603bd3	-0.054744553
135	0x3d343a60	0.044000983
136	0xbcd9459f	-0.026522456
137	0x3d4d1ad7	0.050074425
138	0xbd055a59	-0.032556865
139	0xbd409c73	-0.0470242
140	0xbd902134	-0.07037583
141	0x3c73b1d8	0.014873944
142	0x3c835d11	0.016035588
143	0xbd2af914	-0.041741446
144	0xbcbc55cd	-0.022990132
145	0x3d123077	0.03569075
146	0x3d19f6a8	0.037588745
147	0x3cebdda0	0.028792202
148	0xbd263e34	-0.040586665
149	0xbd11e7df	-0.03562152
150	0xbd3881e9	-0.045045767
151	0x3d0cae89	0.034346137
152	0xbd1c33af	-0.038135227
153	0x3d6158fc	0.055016503
154	0x3d951af9	0.07280535
155	0xbc339959	-0.010961854
156	0xbcb77c80	-0.022398233
157	0xbc2ab8fd	-0.010420081
158	0x3d1ea36d	0.038730074
159	0xbcdb7bbe	-0.026792403
160	0x3d7fcfe7	0.06245413
161	0x3cad1377	0.021127446
162	0x3d806257	0.06268757
163	0x3cdf0951	0.027226122
164	0xbd481427	-0.048847344
165	0x3a47e81f	0.00076258363
166	0x3cf656e4	0.03007073
167	0x3d82cd0d	0.063867666
168	0xbd2f5fa0	-0.042815804
169	0x3cec4f66	0.028846454
170	0x3d40c556	0.047063194
171	0x3d4570b1	0.048203174
172	0x3d29044f	0.041263875
173	0x3bf7d513	0.007563242
174	0xba89c32c	-0.0010510436
175	0xbd5a00ee	-0.053223543
176	0x3d37858c	0.044805095
177	0x3bb80a1c	0.0056164395
178	0xbb0aa267	-0.0021153928
179	0xbd31e95c	-0.04343544
180	0xbc960dd9	-0.01831715
181	0xba9c3de4	-0.00119203
182	0x3d5adcd7	0.053433266
183	0xbc5007cc	-0.012697171
184	0xbd47eeef	-0.04881185
185	0xbc5eaaac	-0.013590496
186	0x3c7bfa8b	0.015379558
187	0x3ce90b3e	0.028447744
188	0xbc8391fc	-0.016060822
189	0x3bcfc38d	0.00634045
190	0x3d9d9721	0.07694841
191	0x3bc17058	0.005903285
192	0x3d3e1852	0.046409912
193	0x3c30d4f5	0.01079296
194	0x3b10b68a	0.0022081458
195	0xbca06780	-0.019580603
196	0xbd6de48c	-0.058079287
197	0x3c921704	0.01783324
198	0x3d2e3eae	0.042540245
199	0xbd6cf322	-0.057849057
200	0x3c329396	0.010899445
201	0xbbdd2249	-0.006748472
202	0x3cb01e8c	0.02149894
203	0x3d802a5d	0.0625808
204	0xbc37559b	-0.0111898435
205	0x3c0e4c69	0.00868521
206	0xbbd143a8	-0.006386239
207	0xb9b9fb3e	-0.0003547314
208	0xbc5cd8d7	-0.013479433
209	0x3d20df5d	0.039275516
210	0x3cfa09d5	0.030522266
211	0x3cca9d8d	0.02473333
212	0x3c4f0b73	0.012637007
213	0xbb737289	-0.0037147126
214	0x3cf83a46	0.030301224
215	0xbcd14062	-0.025543395
216	0x3cbd0cf6	0.02307747
217	0x3d6a1f44	0.057158723
218	0x3cc932aa	0.024560291
219	0x3ccb1cae	0.024793949
220	0xbd40f466	-0.047108077
221	0x3d02c8d4	0.031929806
222	0x3c70bf96	0.014694115
223	0xbd4394a7	-0.047749188
224	0xbca9d340	-0.020730615
225	0xbd7deeac	-0.061995193
226	0xbc5d522e	-0.013508363
227	0x3bb4a5cd	0.005512929
228	0x3d71af1d	0.05900489
229	0xbc5c6569	-0.013451912
230	0x3d99267a	0.07478042
231	0x3d0ce6dc	0.034399852
232	0x3cbf3f85	0.023345718
233	0x3cba4296	0.022736829
234	0xbd57f5da	-0.052724697
235	0xbda09a86	-0.07841973
236	0x3d778d30	0.06043738
237	0xbcda598e	-0.026654031
238	0xbc2b4da6	-0.010455525
239	0xbc899a28	-0.01679714
240	0x3c7b7439	0.015347534
241	0x3d898aea	0.06715949
242	0x3a7fb52d	0.00097544753
243	0x3d68a0bf	0.056793924
244	0xbd528383	-0.05139495
245	0x3d2ce1a1	0.042207364
246	0x3cbae1bf	0.022812722
247	0xbd5ac300	-0.053408623
248	0xbb94f2da	-0.0045455517
249	0x3c9df159	0.019280123
250	0x3c7d6efe	0.015468357
251	0xbccdbce8	-0.025114492
252	0x3ce8a0a8	0.02839692
253	0xbdab86cd	-0.083753206
254	0x3c00058a	0.007813821
255	0x3d6cdb1f	0.057826158

net.2.bias f4 [256]
0	0x39b0dcaa	0.00033733743
1	0xbd954796	-0.072890446
2	0x3c8ccad9	0.017186569
3	0xbd621829	-0.055198822
4	0xbca2f3bf	-0.019891618
5	0xbbdb58e7	-0.0066939476
6	0x3d6400cd	0.055664826
7	0xbc87c53f	-0.016573546
8	0x3d492a0d	0.04911237
9	0xbc7560b0	-0.014976665
10	0x3cef296c	0.029194556
11	0x3e168404	0.14698797
12	0x3beb3b40	0.007178694
13	0xbc08b9ff	-0.008345126
14	0xbb3e9782	-0.0029082005
15	0xbdb35aec	-0.08757576
16	0xbd3196ca	-0.043356694
17	0xbda35ffb	-0.07977291
18	0xbdd2ab17	-0.10286539
19	0x3d181194	0.03712614
20	0xbc7c366f	-0.015393837
21	0xbdb7dccb	-0.0897766
22	0xbda74a6a	-0.0816849
23	0xbce5fd40	-0.02807486
24	0xbdc107ba	-0.09425302
25	0xbd92900c	-0.07156381
26	0x3dca3c14	0.0987474
27	0xbcfd1fac	-0.030898891
28	0x3dd9a789	0.10627658
29	0xbbe59b8c	-0.007007068
30	0x3d89ed53	0.06734719
31	0x3db36e00	0.08761215
32	0xbcd0d0eb	-0.025490245
33	0xbdd2fe8b	-0.103024565
34	0xbd90e22b	-0.07074388
35	0x3d6aea76	0.057352506
36	0x3d1da78d	0.038489867
37	0xbdf6fccf	-0.12059938
38	0xbdf47a7f	-0.11937427
39	0xbd039ebd	-0.032133806
40	0xbd46147a	-0.04835937
41	0xbd07dc9d	-0.033169378
42	0x3a00dfb5	0.00049161474
43	0x3d4f4c44	0.050609842
44	0x3dbd11a5	0.09231881
45	0xbe031982	-0.12802699
46	0x3d2d7605	0.04234888
47	0xbc2ba7d4	-0.010477025
48	0x3b65c38a	0.0035059177
49	0xbd2ca56b	-0.042149942
50	0x3dedf423	0.11618831
51	0xbd56da53	-0.052454304
52	0x3c311edc	0.01081058
53	0xbdb6454e	-0.088999376
54	0x3d43578a	0.047690906
55	0xbb2ef8f3	-0.0026698678
56	0xbd090f0f	-0.033461627
57	0xbc905db4	-0.017622806
58	0xbdf1b009	-0.11801154
59	0x3de45eb3	0.11150875
60	0x3d0e82c1	0.034792665
61	0x3d5432d0	0.05180627
62	0x3db2df0a	0.087339476
63	0x3cfe37a8	0.031032398
64	0xbb5a8251	-0.0033341835
65	0x3e0ed589	0.13948645
66	0xbdea52e3	-0.11441591
67	0xbdcc2257	-0.09967487
68	0x3d2869a8	0.041116387
69	0xbd8b5f8b	-0.06805333
70	0xbc554734	-0.013017464
71	0xbe06f474	-0.13179189
72	0xbd83630f	-0.06415378
73	0x3c725a74	0.0147920735
74	0xbd217c51	-0.039425198
75	0xbce08a8a	-0.02740981
76	0xbd01e0ec	-0.031708643
77	0x3bf6ad2f	0.0075279693
78	0x3d98e6aa	0.07465871
79	0xbc9854ed	-0.018595183
80	0xbcff1e3f	-0.031142352
81	0x3db80d20	0.089868784
82	0xbd820535	-0.063486494
83	0xbb8b0a8a	-0.0042431997
84	0x3d766804	0.06015779
85	0xbdbffc29	-0.093742676
86	0xbc071510	-0.008244768
87	0x3dacce71	0.08437813
88	0xbbf84659	-0.0075767455
89	0xbd901d04	-0.07036784
90	0x3d47716d	0.048692156
91	0xbdc44d71	-0.09585083
92	0x3c8afa50	0.016965061
93	0xbda5a579	-0.08088202
94	0x3deb2cf4	0.114831835
95	0x3d8d4b06	0.06899075
96	0xbd55fefd	-0.05224513
97	0xbd826d9f	-0.06368565
98	0x3d146c63	0.036236178
99	0x3d0507ab	0.032478016
100	0x3d848f35	0.06472627
101	0xbc56852b	-0.013093273
102	0xbb7f6b4c	-0.0038973866
103	0xbdcc9d91	-0.09990991
104	0x3d944780	0.072402
105	0x3d3f806a	0.046753325
106	0x3ca267da	0.01982491
107	0xbd1e13c9	-0.038593087
108	0xbd4b71ca	-0.049669065
109	0xbdd66692	-0.104687825
110	0xbd945a2c	-0.072437614
111	0xbdb2ffd9	-0.08740205
112	0x3cf586cc	0.029971503
113	0xbc6e87a4	-0.014558706
114	0x3cc698e3	0.024242824
115	0xbd384a45	-0.044992704
116	0x3c7cd9c1	0.015432776
117	0xbb07e363	-0.0020734898
118	0xbdd1a37b	-0.102362595
119	0xbd89ab3e	-0.06722115
120	0xbcd91f72	-0.026504252
121	0xbc84ddef	-0.016219107
122	0xbd066874	-0.032814458
123	0x3dbdeece	0.09274064
124	0xbd8ec10b	-0.06970414
125	0x3c0f12a7	0.008732474
126	0x3c89b25c	0.016808681
127	0xbd4c375e	-0.04985749
128	0xbd4f6baf	-0.050639804
129	0x3dae124d	0.08499584
130	0xbe09f19a	-0.1347107
131	0xbd58bf74	-0.05291696
132	0x3db3d137	0.08780139
133	0xbdf48820	-0.11940026
134	0x3dd12fb3	0.10214176
135	0x3d591ab6	0.05300399
136	0xbb73bf18	-0.0037192758
137	0x3d4808ed	0.048836637
138	0xbc6de0df	-0.0145189455
139	0xbca3f68a	-0.02001502
140	0x3c0ea1c1	0.008705557
141	0x3d84914f	0.06473028
142	0xbcee66cb	-0.02910175
143	0xbe21cac8	-0.15800011
144	0xbda4c4ff	-0.080453865
145	0x3d298bd8	0.04139313
146	0xbd06ca45	-0.032907743
147	0xbdd34c12	-0.10317244
148	0xbbde6c5c	-0.00678782
149	0xbde309c7	-0.11085849
150	0x3c4e4cb9	0.012591534
151	0xba80d3db	-0.0009828763
152	0x3bc7d424	0.006098287
153	0xbcdea228	-0.027176932
154	0xbd6b9c09	-0.057521854
155	0x3d89bb97	0.06725233
156	0x3acf8680	0.0015832931
157	0xbce5fb11	-0.02807382
158	0x3dad09f6	0.084491655
159	0xbc326c26	-0.010890042
160	0x3d1931f0	0.03740114
161	0xbca96dcb	-0.020682236
162	0xbbbac3ab	-0.005699595
163	0xbd863963	-0.065539144
164	0x3d8fcb0b	0.07021149
165	0x3dbcd587	0.092204146
166	0x3d340ac8	0.043955594
167	0xbda095ec	-0.07841095
168	0x3d78ce25	0.06074347
169	0xbd753979	-0.059869263
170	0x3d509f43	0.050933134
171	0xbd1b1072	-0.03785748
172	0x3dd949f8	0.106098115
173	0x3d9e5919	0.07731838
174	0x3cd4797f	0.02593684
175	0x3d33954d	0.043843556
176	0xbdda3850	-0.10655272
177	0x390f18d9	0.00013646799
178	0xbc8b56a8	-0.017009094
179	0x3d8f050f	0.06983387
180	0xbd29eed0	-0.041487515
181	0x3d0fdcf1	0.035122816
182	0x3da71255	0.081577934
183	0xbc6929f4	-0.014231194
184	0xbd7cd96c	-0.061730787
185	0xbd67ed11	-0.05662257
186	0xbd8350b3	-0.064118765
187	0x3dd66291	0.10468019
188	0xbcf31a6f	-0.02967569
189	0x3b89ea3d	0.0042088316
190	0xbd0b9e5b	-0.034086566
191	0xbda04953	-0.078264855
192	0xbd6e3fe1	-0.05816639
193	0x3d99c9c7	0.07509189
194	0x3b2bec98	0.002623355
195	0x3d3e19dd	0.046411384
196	0x3d809b12	0.06279577
197	0xbc2e0687	-0.010621673
198	0x3d76c95d	0.06025063
199	0x3c091c25	0.008368527
200	0xbb321139	-0.002717091
201	0xbd053d2f	-0.032529052
202	0x3b09d249	0.002102988
203	0x3c7bcb79	0.015368336
204	0x3d60da45	0.054895658
205	0xbd865d6a	-0.06560786
206	0xbd638772	-0.055549093
207	0x3c415292	0.011799471
208	0xbdf446a3	-0.119275354
209	0x3d6ea94b	0.05826692
210	0xbd0cfae3	-0.03441895
211	0x3e255c91	0.16148593
212	0xbd883924	-0.06651524
213	0xbe23c421	-0.15992786
214	0xbc86311d	-0.01638084
215	0xbd107f10	-0.035277426
216	0x3d380bdf	0.044933196
217	0x3dcaa9eb	0.098956905
218	0xbd0ed4a5	-0.034870762
219	0xbd9710be	-0.0737624
220	0x3c8b47bf	0.017001985
221	0xbc214b4e	-0.009844614
222	0xbb0a3f67	-0.002109492
223	0xbd95b239	-0.07309384
224	0x3d8338a6	0.06407289
225	0xbdb1eab9	-0.08687348
226	0x3c6fd4c8	0.014638133
227	0xbd28d716	-0.041220747
228	0xbc62ce61	-0.01384315
229	0xbde29b47	-0.11064773
230	0x3c877400	0.016534805
231	0x3e3a6c14	0.18205291
232	0xbddb7886	-0.107163474
233	0xbe00e649	-0.12587847
234	0x3d8dfa6c	0.0693253
235	0x3d69b3d9	0.05705628
236	0x3b98406b	0.004646351
237	0x3c8717ba	0.016490806
238	0x3dcc7e42	0.09985019
239	0xbe09ebd5	-0.13468869
240	0x3d12719c	0.035752878
241	0x3cd1b7b2	0.025600288
242	0x3dbf5383	0.093421005
243	0xbdb414f4	-0.08793059
244	0x3d87bc5f	0.06627726
245	0x3dd98484	0.106209785
246	0xbbdbdd7c	-0.0067097526
247	0xbc7f80d8	-0.015594684
248	0xbcdecdbd	-0.027197713
249	0xbc907571	-0.017634125
250	0x3da55e74	0.08074656
251	0xbd491c2f	-0.049099144
252	0xbd3649b2	-0.044503875
253	0x3d0b0aeb	0.03394596
254	0xbcaf29f5	-0.021382311
255	0x3d1ad71e	0.037802808

net.4.weight f4 [256, 256]
0	0xbd12b0a6	-0.035812996
1	0xbce2819d	-0.027649695
2	0x3dc376a2	0.09544112
3	0xbd7f32a0	-0.06230414
4	0x3d26c0db	0.040711265
5	0xbd0fccd9	-0.035107467
6	0x3d7591b0	0.05995339
7	0xbd5d4538	-0.05402109
8	0xbd29683a	-0.041359164
9	0x3c89a482	0.016802076
10	0xbc63775b	-0.013883437
11	0x3d9b9ec1	0.07598639
12	0x3d0eb82d	0.034843612
13	0xbd76c19d	-0.060243238
14	0x3d3c143f	0.045917746
15	0x3d31ab5e	0.04337632
16	0x3d1b6274	0.03793569
17	0xbd66df0b	-0.056365054
18	0xbbeb14e1	-0.00717412
19	0xbc05e33f	-0.0081718555
20	0xbd4a228b	-0.04934935
21	0xbd3643ba	-0.044498183
22	0x3c873900	0.016506672
23	0xbcffb0bf	-0.031212209
24	0xbcddc257	-0.027070208
25	0x3cfe5b11	0.031049283
26	0xbd06ddc7	-0.032926347
27	0xbd2dcb5b	-0.042430263
28	0x3d72b530	0.059254825
29	0xbd4e0660	-0.05029905
30	0x3aed8cb2	0.0018123596
31	0x3cdbb8cc	0.026821516
32	0xbd296827	-0.041359093
33	0x3c56e7f9	0.01311683
34	0xbc2441ae	-0.010025425
35	0xbd2e5453	-0.042560887
36	0x3d186225	0.037202973
37	0x3c460e84	0.012088422
38	0xbc6a4d93	-0.014300722
39	0xbd4f0c86	-0.050549053
40	0x3c3ad18b	0.011402498
41	0xbd5cdf94	-0.05392416
42	0x3d5bbfa5	0.053649563
43	0x3c440f27	0.011966503
44	0xbc078968	-0.008272506
45	0x3d211487	0.039326217
46	0x3cb2b758	0.02181594
47	0x3af6be38	0.0018825
48	0xbd39a882	-0.045326717
49	0x3cc0e90e	0.02354863
50	0x3c744940	0.014910042
51	0x3d43f82e	0.047844104
52	0x3c99bfc8	0.018768206
53	0x3bba2083	0.005680145
54	0xbcc32043	-0.023819095
55	0x3d7e864c	0.062139794
56	0x3cfc90d6	0.030830782
57	0xbd3fa5eb	-0.04678909
58	0xbc6e7cd2	-0.014556127
59	0x3d10a468	0.03531304
60	0xbc3ba4c9	-0.011452862
61	0xbc0a42e2	-0.008438798
62	0xbd1ecbab	-0.03876845
63	0xbd398d8a	-0.045300998
64	0xbd7fc59a	-0.062444307
65	0xbd0639ab	-0.03276984
66	0x3d1d360f	0.038381632
67	0x3cbd685a	0.023121048
68	0xbd1c29dd	-0.03812586
69	0xbc2e2e9a	-0.010631228
70	0x3d347364	0.044055358
71	0x3cc55d8a	0.024092454
72	0x3c93a828	0.01802452
73	0xbd5a77a8	-0.05333677
74	0xbd1ef9f4	-0.038812593
75	0x3d0e1c1d	0.03469478
76	0x3c6a3450	0.014294699
77	0x3c0e2d87	0.008677847
78	0x3d53594a	0.051598825
79	0xbd8468a0	-0.06465268
80	0x3d00f501	0.031483654
81	0xbd3260d0	-0.04354936
82	0xbd721f6f	-0.05911201
83	0x3d09ded1	0.03365976
84	0x3d843e7e	0.06457232
85	0xbd93fa54	-0.07225481
86	0xbd084642	-0.033270128
87	0x3aa73741	0.0012757556
88	0x3cdbd1cb	0.026833436
89	0x3d224817	0.03961953
90	0x3d2c535a	0.042071678
91	0xbd8636ae	-0.06553398
92	0x3bf07d3b	0.0073391474
93	0x3901d24a	0.00012380737
94	0x3d9518db	0.072801314
95	0x3d793ae4	0.060847178
96	0x38d2e9bc	0.00010057117
97	0xbd8cc9fd	-0.06874464
98	0x3d953eea	0.072873905
99	0xbd671c57	-0.05642351
100	0x3d7c141e	0.061542623
101	0x3bf3e81e	0.007443442
102	0xbcb359ff	-0.0218935
103	0xbb8d8209	-0.00431848
104	0x3d0c771e	0.034293287
105	0xbd7554df	-0.059895393
106	0xbd0c5381	-0.034259323
107	0xbd6a0fc8	-0.057143956
108	0xbd34aaf2	-0.04410834
109	0xbd5d6a5e	-0.054056518
110	0x39a6036e	0.00031664543
111	0xbd62326f	-0.05522388
112	0xbcf53cff	-0.029936312
113	0xbdaedbdc	-0.085380286
114	0x3cf8be08	0.030364051
115	0xbd43ddeb	-0.04781906
116	0x3cd7ae04	0.026328094
117	0x3d5bed22	0.053692944
118	0x3cc7bf6b	0.024383267
119	0x3d48bb0d	0.04900651
120	0x3b5beb17	0.0033556873
121	0xbccffdbe	-0.025389548
122	0x3bcd6a7a	0.0062687965
123	0x3bb1c0f5	0.0054246136
124	0x3d0dc9b8	0.034616202
125	0xbcaab2d9	-0.020837234
126	0x3cda2ae5	0.026631782
127	0xbd202080	-0.039093494
128	0x3d337b14	0.04381855
129	0xbcf86160	-0.03031987
130	0xbd828d7e	-0.06374644
131	0x3a66da87	0.0008806367
132	0x3d09383c	0.033500895
133	0xbd829328	-0.06375724
134	0x3d830f02	0.06399347
135	0xbd370cfb	-0.044690114
136	0xbcc32b2a	-0.023824293
137	0x3d19b37f	0.037524696
138	0xbd3905cf	-0.045171555
139	0x3cc19aa6	0.023633312
140	0x3d24bc0e	0.040218405
141	0x3afde4de	0.0019370576
142	0xbd343f45	-0.04400565
143	0xbc70180c	-0.014654171
144	0xbbf2510f	-0.007394917
145	0x3d81f634	0.06345788
146	0x3bfaaf21	0.0076502715
147	0xbc9891d4	-0.018624224
148	0xbb356c85	-0.002768309
149	0x3c996602	0.018725399
150	0x3ce339ea	0.027737577
151	0x3cc0ab52	0.023519192
152	0xbc074a94	-0.008257527
153	0x3d144acf	0.036204156
154	0xbd3110eb	-0.043229025
155	0xbb8fbf73	-0.004386836
156	0xbc664262	-0.014053913
157	0x3d01469f	0.03156149
158	0x3c231579	0.00995385
159	0x3d5bf8e8	0.053704172
160	0xbd091f74	-0.03347726
161	0xbd4928d5	-0.049111206
162	0x3d0246f0	0.031805933
163	0x3c19f85d	0.009397593
164	0x3d7fc6b6	0.062445365
165	0x3d2fea2e	0.04294794
166	0x3c4ecbc5	0.012621825
167	0xbca262d2	-0.019822512
168	0x3c6290b6	0.013828447
169	0xbd39759f	-0.045278188
170	0xbcf98f61	-0.030463876
171	0xbd84d244	-0.064854175
172	0x3d465435	0.04842015
173	0x3cbc4e7e	0.022986647
174	0x3d03a8a9	0.03214327
175	0x3dd209c6	0.102557704
176	0xbd42c470	-0.04755062
177	0xbd348bde	-0.0440787
178	0x3cb1ef51	0.02172056
179	0x3d04805b	0.03234897
180	0x3d77520f	0.06038099
181	0x3c94aec3	0.01814974
182	0x3c7aa0d4	0.0152971335
183	0xbd823c6f	-0.06359183
184	0xbc5df5d8	-0.013547383
185	0xbc5c21e7	-0.013435817
186	0xbd267486	-0.04063847
187	0xbc9031e9	-0.017601924
188	0x3b22392b	0.0024753313
189	0x398a1fad	0.0002634501
190	0xbd63461d	-0.055486787
191	0xbaa9c005	-0.0012950903
192	0xbd752538	-0.059849948
193	0x3d600599	0.05469284
194	0x3cbe8666	0.023257446
195	0x3cec7497	0.028864188
196	0xbb027737	-0.0019907483
197	0xbc1c4227	-0.009537256
198	0x3d180a4f	0.037119206
199	0xbd8afd4e	-0.06786595
200	0x3d4e4fcc	0.05036907
201	0xbb03fc9c	-0.002013958
202	0xbd3c4dcb	-0.045972627
203	0x3ce8a74d	0.028400088
204	0x3cb5bff0	0.02218625
205	0x3bfdf200	0.007749796
206	0xbceb852e	-0.028750028
207	0x3c883330	0.01662597
208	0x3d2948e1	0.04132927
209	0x3d04345e	0.032276504
210	0xbca34a65	-0.019932935
211	0x3dacb81a	0.08433552
212	0xbd628fa8	-0.055312783
213	0xbcb22341	-0.021745326
214	0x3d27c18f	0.040956076
215	0x3ccdbb3f	0.0251137
216	0xbd3cd31b	-0.046099763
217	0x3ccb5875	0.024822453
218	0x3d0dba97	0.034601774
219	0xbd7dadec	-0.061933443
220	0x3d0b3dcf	0.033994492
221	0x3c86de22	0.016463343
222	0xbd7a23d8	-0.06106934
223	0xbd31f64e	-0.043447785
224	0x3d9dceb6	0.077054426
225	0xbc59cb6c	-0.013293128
226	0x3d15e537	0.03659555
227	0x3d1b6b55	0.037944157
228	0x3c944b55	0.018102327
229	0xbc1a7a82	-0.009428622
230	0xbd55f172	-0.052232213
231	0x3d1b0657	0.037847843
232	0xbd98665f	-0.07441401
233	0x3c8c5773	0.017131543
234	0x3ce26637	0.02763663
235	0xbc93a86c	-0.018024646
236	0x3c2b0e81	0.01044047
237	0xbc72ab1f	-0.014811306
238	0x3d41f547	0.047353055
239	0xbd326687	-0.04355481
240	0xbcb61a93	-0.022229468
241	0x3d0004bb	0.03125451
242	0xbb82668c	-0.0039795097
243	0x3d2a410f	0.04156595
244	0x3d340742	0.043952234
245	0xbc49c99c	-0.012316134
246	0xbbbed08a	-0.0058231996
247	0xbd1589c1	-0.036508325
248	0x3b117387	0.0022194104
249	0x3c168997	0.009188077
250	0xbe4386e0	-0.1909442
251	0xbd39633a	-0.045260645
252	0xbca1ca69	-0.019749837
253	0x3d58dbd6	0.052944027
254	0xbd5c5161	-0.053788546
255	0xbbb68f46	-0.0055712787

net.4.bias f4 [256]
0	0x3daaa0ff	0.08331489
1	0xbdc7d237	-0.09756892
2	0xbd9be4cd	-0.07612
3	0xbdc42479	-0.09577269
4	0x3d34c874	0.04413648
5	0xbce94a73	-0.028477883
6	0x3da9def1	0.08294476
7	0xbdf2c2fc	-0.118535966
8	0x3d08e7ff	0.033424374
9	0x3dbcfa1f	0.09227394
10	0xbc941a25	-0.018078873
11	0x3bd16f4f	0.006391443
12	0xbbf5109f	-0.007478788
13	0xbd0418c5	-0.032250185
14	0x3d79fc2e	0.061031513
15	0x3dabb98f	0.08385002
16	0xbd174273	-0.036928605
17	0xbdafda0c	-0.08586511
18	0xbca44e70	-0.020056933
19	0x3ca4e62f	0.020129291
20	0xbc8db5a1	-0.017298521
21	0xbd166f14	-0.036727026
22	0xbe4cdfc6	-0.20007238
23	0x3bf1603a	0.0073662074
24	0x3af26680	0.0018493682
25	0x3de6c410	0.11267865
26	0x3c846f79	0.016166436
27	0xb92c9794	-0.00016459665
28	0x3c91cd64	0.017798133
29	0xbd9e6ab1	-0.077351935
30	0x3c149fd0	0.009071305
31	0xbd34b31c	-0.044116125
32	0x3b0dc0c9	0.0021629801
33	0x3d2e527e	0.04255914
34	0xbd8aeff7	-0.06784051
35	0xb9ed617a	-0.00045276788
36	0x3c07b710	0.008283392
37	0x3dbf94aa	0.09354527
38	0xbdebaded	-0.11507783
39	0xbd586a71	-0.052835885
40	0xbdefbb62	-0.11705662
41	0xb9b59ce5	-0.00034639906
42	0x3d6437d9	0.055717323
43	0x3d396f75	0.04527231
44	0xbd7c70b0	-0.061630905
45	0x3c4d7618	0.012540363
46	0x3dc835eb	0.09775909
47	0xbc8cac24	-0.017171927
48	0x3ca81128	0.020515993
49	0xbc8079ac	-0.015683018
50	0x3d41c06b	0.047302645
51	0xbdf6d3ca	-0.12052114
52	0xbd90f694	-0.07078281
53	0x3da43c3f	0.080193035
54	0x3d86ec5b	0.0658805
55	0x3bdc6774	0.0067261998
56	0x3d8216cf	0.06352007
57	0x3d174362	0.036929496
58	0x3dcfb1db	0.10141345
59	0x3d29d420	0.041462064
60	0xbd17c012	-0.037048407
61	0x3bb79307	0.005602244
62	0xbe4a54fa	-0.19758978
63	0xbd9cf458	-0.07663792
64	0x3d823eee	0.06359659
65	0x3db70fce	0.089385614
66	0x3cbe7116	0.023247283
67	0x3caa2b54	0.020772614
68	0xbdab3d9d	-0.08361361
69	0xbc5c1a09	-0.013433942
70	0x3d9513f3	0.07279196
71	0x3bace0f9	0.0052758423
72	0x3dbd0997	0.09230345
73	0xbd3d854d	-0.046269704
74	0x3dcf1587	0.10111528
75	0x3beadb87	0.007167283
76	0xbd5f5d94	-0.054532602
77	0x3d501afa	0.050806977
78	0xbb934579	-0.004494366
79	0x3b6e8a6c	0.0036398424
80	0xbce7d12b	-0.028297981
81	0x3dabbf61	0.08386112
82	0xbe10de70	-0.14147353
83	0x3e013f47	0.12621795
84	0xbcbef9d7	-0.023312492
85	0x3ce31da2	0.027724091
86	0xbceb783c	-0.028743856
87	0x3d85b06b	0.0652779
88	0x3bd3193b	0.0064422167
89	0xbdd495c9	-0.10380132
90	0xbd53ab21	-0.051676873
91	0x3d931b79	0.07182974
92	0x3d5a35b2	0.053273864
93	0xbcb3e957	-0.021961851
94	0x3dd7c1db	0.10535022
95	0xbb06e752	-0.0020584655
96	0xbd47cde2	-0.04878033
97	0x3dceb719	0.10093517
98	0x3d8eecc3	0.069787525
99	0x3cd47981	0.025936844
100	0xbdbde65d	-0.09272454
101	0x3d2cc6df	0.042181846
102	0xbdaddf61	-0.08489872
103	0x3dd04340	0.10169077
104	0xbc99f8d8	-0.018795416
105	0xbdb683c4	-0.08911851
106	0xbd320404	-0.04346086
107	0xbd17bbea	-0.037044443
108	0xbdacb2cd	-0.08432541
109	0xbee246eb	-0.4419473
110	0xbd220efb	-0.039565068
111	0xbcf041f9	-0.029328333
112	0xbd306882	-0.043068416
113	0xbd96d9bc	-0.07365748
114	0xbbf068d4	-0.0073367152
115	0xbd88f6b1	-0.06687678
116	0xbcacdf85	-0.021102676
117	0xbd5616fa	-0.052268006
118	0x3da696b7	0.08134215
119	0x3ce8056f	0.028322903
120	0xbc9a8e2d	-0.018866623
121	0x3cfde851	0.030994566
122	0x3d5cfdb2	0.05395288
123	0xbd4b224c	-0.049593255
124	0xbd1b6d08	-0.037945777
125	0x3d66fa96	0.05639132
126	0x3ceb917b	0.028755894
127	0x3b6610c2	0.0035105203
128	0x3da9c5a0	0.08289647
129	0xbe151d94	-0.14562064
130	0x3dabd28c	0.08389768
131	0x3db218b0	0.08696115
132	0xbd587bd9	-0.052852485
133	0x3d8a2335	0.067449965
134	0x3de7eee8	0.113248646
135	0x3d5290d8	0.051407665
136	0xbdb9ef40	-0.090788364
137	0xbca23c43	-0.019804126
138	0xbca7221e	-0.02040201
139	0x3d76ecb8	0.060284346
140	0x3d9f0251	0.07764114
141	0x391a722b	0.00014729115
142	0xbd4e7d6c	-0.05041258
143	0x3ca3bef3	0.019988513
144	0x3c8917d2	0.016734991
145	0xbc85f369	-0.016351419
146	0x3d5f34f7	0.05449387
147	0x3be46f24	0.006971257
148	0xbd897953	-0.06712594
149	0x3db8ae85	0.09017662
150	0xbd2835fa	-0.0410671
151	0x3d4f2175	0.050569016
152	0x3cf3e56f	0.029772488
153	0xbdd95a4d	-0.10612927
154	0xbe867f90	-0.26269197
155	0x3cdae4bb	0.026720395
156	0xbd8ded8f	-0.06930076
157	0x3cc8ed46	0.024527203
158	0x3ae08395	0.0017129058
159	0x3b86233b	0.0040935553
160	0x3da3909e	0.07986568
161	0xbc2b7a9a	-0.010466242
162	0xbdd0bee4	-0.101926595
163	0x3d984104	0.07434276
164	0xbc597d51	-0.013274507
165	0x3d093cbf	0.033505198
166	0x3c220680	0.009889245
167	0xbd5b002b	-0.053466957
168	0xbd0787bc	-0.03308843
169	0xbd9a9643	-0.075481914
170	0xbcb818ee	-0.022472825
171	0x3d99aafb	0.07503315
172	0xbd75c527	-0.060002472
173	0x3dd2ca02	0.10292436
174	0x3b9ceef8	0.0047892295
175	0xbdc80a69	-0.097676106
176	0xbd4e6ebc	-0.050398573
177	0xbdc725ad	-0.09723983
178	0xbdd7ad35	-0.105310835
179	0x3d8c6c5d	0.06856606
180	0x3c923701	0.017848494
181	0xbd9b3bcf	-0.07579767
182	0x3e0e7377	0.13911234
183	0x3c33a05b	0.010963525
184	0xbd3b2a8d	-0.045694876
185	0x3da6cc6d	0.0814446
186	0x3d31fa69	0.0434517
187	0xbd31c187	-0.043397453
188	0xbd667d7e	-0.056272022
189	0xbca5fc7a	-0.020261992
190	0xbd62b478	-0.05534789
191	0x3d303226	0.043016575
192	0xbd4f3d01	-0.050595287
193	0xbdb3d0ff	-0.08780097
194	0x3d8ced9d	0.06881259
195	0xbd214702	-0.03937436
196	0xbe00cc72	-0.1257799
197	0x3cee36ce	0.029078867
198	0x3c4ada19	0.0123811
199	0x3d2839ff	0.041070934
200	0xbc795c73	-0.0152197955
201	0xbc0d2673	-0.008615124
202	0x3d8452f6	0.06461136
203	0xbe082834	-0.13296586
204	0x3e010208	0.12598431
205	0xbc57ed2d	-0.013179106
206	0xbde09d8b	-0.10967549
207	0x3df649db	0.120258056
208	0xbcc12fbb	-0.02358233
209	0x3cb1b4d7	0.021692676
210	0xbc54df26	-0.012992656
211	0xbdd677ca	-0.10472067
212	0xbd04063d	-0.03223251
213	0xbe9d24f8	-0.30692267
214	0x3daedfeb	0.08538803
215	0xbcae3df4	-0.021269776
216	0xbc9ed774	-0.019389845
217	0x3d5aba2e	0.05340021
218	0xbac3a573	-0.0014926627
219	0xbe09dc8a	-0.13463035
220	0x3ae91af8	0.0017784527
221	0xbc143667	-0.009046174
222	0xbda2fb5d	-0.079581
223	0xbd4801d0	-0.048829854
224	0x3e35c41d	0.17750593
225	0xbd5dd53c	-0.054158434
226	0x3c60e8e3	0.0137273995
227	0x3df0060b	0.117199026
228	0xbd05bde8	-0.03265181
229	0xbe17c19c	-0.1481995
230	0x3c3423e5	0.010994886
231	0xbe4dc5e0	-0.20095015
232	0xbda0d016	-0.07852189
233	0xbcb1373c	-0.021632783
234	0x3da39464	0.07987288
235	0x3d759bdd	0.059963096
236	0x3d09b16b	0.033616465
237	0x3e0710d5	0.13190015
238	0x3d9375ef	0.072002284
239	0x3ddf3d9d	0.10900424
240	0x3df02ed2	0.1172768
241	0x3cd9de32	0.026595209
242	0xbe1e3f89	-0.15453924
243	0xbdf439ff	-0.119251244
244	0x3d2bc96d	0.04194014
245	0x3d00d2aa	0.031450905
246	0xbc474f50	-0.012164906
247	0xbce116e8	-0.027476743
248	0x3d588958	0.052865356
249	0x3cd60477	0.026125176
250	0xba5a5980	-0.00083293766
251	0x3cb86bf3	0.022512412
252	0x3c969418	0.018381163
253	0xbd27905d	-0.04090916
254	0xbe9cc100	-0.30615997
255	0x3cb95674	0.022624232

net.6.weight f4 [1, 256]
0	0xbcedbf2d	-0.029021824
1	0xbd36c561	-0.04462183
2	0x3d26467f	0.040594574
3	0x3c4abe9e	0.012374548
4	0x3cf6dd3b	0.030134788
5	0x36fede55	7.5956727e-06
6	0xbc20803e	-0.0097962
7	0x3dae6d81	0.0851698
8	0xbd0270b5	-0.031845767
9	0xbd539f01	-0.05166531
10	0xbcfc33ac	-0.030786358
11	0xbc21168e	-0.009832038
12	0xbbd358f8	-0.006449815
13	0x3d50c3ae	0.050967865
14	0xbce18462	-0.027528945
15	0xbda95c9f	-0.08269619
16	0x3d598927	0.053109314
17	0xbc7342d3	-0.014847475
18	0x3c8bb34f	0.017053274
19	0xb98e9c39	-0.00027200746
20	0x3d9fe879	0.078080125
21	0xbd461425	-0.048359055
22	0xbb22d8a6	-0.002484837
23	0x3d4b7d9c	0.049680337
24	0x3ceeed58	0.029165909
25	0xbe219dc6	-0.15782842
26	0xbd581452	-0.052753754
27	0xbd7b0cf2	-0.061291642
28	0x3d2c41fc	0.042055115
29	0xb7e37a2a	-2.7117396e-05
30	0xbdafb240	-0.0857892
31	0xbd5c3e7e	-0.053770535
32	0xbc330ba9	-0.010928073
33	0xbd4259de	-0.047448985
34	0x3d340ce0	0.04395759
35	0xbd32be4a	-0.043638505
36	0x3d58cb45	0.052928228
37	0xbcedb26c	-0.029015742
38	0xbd60b204	-0.05485727
39	0x3d112667	0.035437014
40	0x3d4ad599	0.04952011
41	0x3d237cb7	0.03991386
42	0xbc415739	-0.011800581
43	0xbd36fded	-0.044675756
44	0x3cbf58b8	0.023357734
45	0x3c691749	0.014226743
46	0xbe44c3cc	-0.19215316
47	0xbd71ee72	-0.05906529
48	0xbc989433	-0.018625354
49	0x3d1f649f	0.03891432
50	0x3b47860f	0.0030444895
51	0x3db13323	0.08652332
52	0xbaab498b	-0.0013068182
53	0xbd24c733	-0.040229034
54	0xbd4341cf	-0.04767018
55	0xbd3de8cb	-0.046364587
56	0x3d319591	0.04335553
57	0xbd5e3b23	-0.054255616
58	0xbc06204c	-0.008186411
59	0xbd241f15	-0.040068705
60	0x3c557f1d	0.013030794
61	0xbce40035	-0.02783213
62	0xbdc0307e	-0.09384249
63	0x3d8bd79b	0.06828233
64	0xbd1f1efa	-0.0388479
65	0xbd341858	-0.04396853
66	0xbd2a2404	-0.041538253
67	0xbd686b7f	-0.05674314
68	0x3cf086f7	0.029361231
69	0x3b86be68	0.0041120537
70	0xbcabcf56	-0.020972889
71	0x3d31fe49	0.043455396
72	0xbcdf673e	-0.02727091
73	0x3db33ca7	0.08751803
74	0x3c8177fd	0.015804285
75	0xbce27ce5	-0.027647445
76	0x3d65e1e4	0.05612363
77	0xbd110930	-0.035409153
78	0x3defeced	0.11715112
79	0xbc399c86	-0.011328822
80	0x3b3879e7	0.0028148831
81	0xbd99e308	-0.07514006
82	0xbd5fe084	-0.054657474
83	0x3d9b0d22	0.07570864
84	0x3d2051de	0.039140575
85	0x3d465fd5	0.048431236
86	0xbd43fbbb	-0.04784749
87	0xbd1d7e4e	-0.03845053
88	0xbc841fb6	-0.016128402
89	0x3d939008	0.07205206
90	0xbd24d16f	-0.040238794
91	0xbc88354c	-0.016626976
92	0xbcb1b7ee	-0.02169415
93	0xbd9b7863	-0.07591321
94	0xbd85d553	-0.06534829
95	0xbd8ef9e2	-0.06981255
96	0x3caeac79	0.021322476
97	0xb86e4f81	-5.6817666e-05
98	0xbb8f6f03	-0.0043772473
99	0xbdc48fd3	-0.09597745
100	0x3daebd66	0.08532219
101	0xbd4eab0c	-0.05045609
102	0xbda00d2f	-0.078150146
103	0xbc9fad66	-0.019491863
104	0x3d80cba5	0.06288842
105	0x3d2518d5	0.040306885
106	0x3d4a7d2d	0.049435783
107	0x3da00f62	0.07815434
108	0x3e58c667	0.21169434
109	0xb6f865e8	-7.4028394e-06
110	0x3d5dd96a	0.05416242
111	0xbcb0c55b	-0.021578481
112	0x3c92d204	0.017922409
113	0x3d411244	0.04713656
114	0x3c5fdcd6	0.013663491
115	0x3d0d70a3	0.034531247
116	0xb804dfc6	-3.1679658e-05
117	0x3d9aaac5	0.07552103
118	0xbd2514c6	-0.040303014
119	0xbc330147	-0.0109255975
120	0xbccf794a	-0.02532639
121	0x3d17ea18	0.037088484
122	0xbd40244e	-0.046909623
123	0x3d4a5bd9	0.049404
124	0xbdd65131	-0.10464705
125	0xbd797d4e	-0.060910515
126	0xbc39bcc4	-0.011336509
127	0xbd12b3d8	-0.035816044
128	0xbd11e0cd	-0.035614777
129	0x3d355efb	0.044280034
130	0x393d0ade	0.00018028493
131	0xbd807e39	-0.06274075
132	0x3c68ba73	0.014204609
133	0xbd913d7b	-0.070918046
134	0xbda0b16b	-0.0784634
135	0xbd6298cc	-0.0553215
136	0x3d151c94	0.036404207
137	0x3d939908	0.07206923
138	0x3cc79110	0.024361163
139	0xbc6dd83b	-0.014516885
140	0xbdc9f72a	-0.09861596
141	0x3c303a71	0.010756121
142	0x3b18701a	0.0023260177
143	0xbc735b52	-0.014853315
144	0xbc546d9c	-0.012965586
145	0xbca22844	-0.01979459
146	0xbd08f150	-0.03343326
147	0xbcea20fe	-0.028580185
148	0xbd910769	-0.070814915
149	0xbddf81d3	-0.10913434
150	0x3d1abc8e	0.037777476
151	0xbd48efb2	-0.049056716
152	0xbd4c5a39	-0.04989073
153	0x3bb35ea1	0.005473927
154	0x36d36bfa	6.30086e-06
155	0x3d63f3b2	0.055652328
156	0x3d8868d7	0.066606216
157	0x3d85efe6	0.065398976
158	0xbb78f8a6	-0.0037990003
159	0x3d801cc6	0.06255488
160	0xbc496377	-0.012291781
161	0x37862640	1.5991856e-05
162	0x3c9b33a1	0.018945517
163	0xbd9cd3f0	-0.07657611
164	0x3c45f99a	0.012083435
165	0xbd5d54bc	-0.054035887
166	0xbe393385	-0.1808606
167	0xbca5ea3c	-0.020253293
168	0x3cc08706	0.023501884
169	0x3824b0b8	3.926523e-05
170	0x3c857682	0.01629186
171	0x3cd2b032	0.025718782
172	0x3dc17fe7	0.094482236
173	0xbd9d790c	-0.076891035
174	0xbcc13222	-0.023583476
175	0xbd67f1fa	-0.05662725
176	0x3dd106ce	0.10206376
177	0x38252bb8	3.937978e-05
178	0xbd4a2bd9	-0.049358223
179	0xbca70ae9	-0.020390945
180	0xbd3e77e1	-0.046501044
181	0xbd67355a	-0.056447364
182	0x384a9c8a	4.830634e-05
183	0x3887ff0e	6.484809e-05
184	0x3d0e52c7	0.03474691
185	0xbd54cfd0	-0.051955998
186	0x3d98731d	0.07443831
187	0x3da41de5	0.080135144
188	0xbd5b3d0d	-0.05352502
189	0xbb20b8a4	-0.0024524117
190	0xbd5b867e	-0.05359506
191	0xbd093573	-0.03349824
192	0x3e084e9b	0.13311236
193	0x3d4f4369	0.050601397
194	0xbda684b8	-0.08130783
195	0x3b564ad3	0.0032698407
196	0x3dc7971f	0.09745621
197	0xbd17c06f	-0.037048753
198	0x3d13e9cf	0.03611165
199	0xbd410efc	-0.04713343
200	0x3d540aa3	0.051767956
201	0x3e03c6a1	0.1286874
202	0xbcf0d90e	-0.029400375
203	0x3e0aefa8	0.13567984
204	0xbd9b7fa7	-0.07592707
205	0x3d18cde9	0.037305746
206	0x3cb43268	0.021996692
207	0x3aa75627	0.0012766764
208	0x3da4480c	0.08021554
209	0x3c48c03f	0.012252866
210	0xbc7bb248	-0.01536233
211	0xbb43657d	-0.002981513
212	0xbc7c6d28	-0.015406884
213	0xb7b3205b	-2.135353e-05
214	0x3d6b2120	0.057404637
215	0x3d9854ed	0.07438073
216	0xbac78dee	-0.0015224793
217	0xbc8660fe	-0.016403671
218	0xbdb123bc	-0.08649394
219	0x3db6a5ac	0.08918318
220	0x3d3d30cf	0.046189126
221	0x3d87486c	0.0660561
222	0x3d91614d	0.07098637
223	0x3d05c0b1	0.032654468
224	0x3de51f47	0.11187606
225	0x3c94faf4	0.01818607
226	0x3cdc0f67	0.026862813
227	0xbd92ee55	-0.071743645
228	0x3cc45ea9	0.023970919
229	0x3d83eb8f	0.064414136
230	0x3e314e86	0.1731511
231	0xbd1e32ab	-0.03862254
232	0xbc920654	-0.017825283
233	0xbd283b58	-0.04107222
234	0xbd13438f	-0.0359531
235	0xbd6eabac	-0.058269188
236	0xbd57d7c2	-0.052695997
237	0xbcd8dfb9	-0.026473867
238	0xbccd1fea	-0.025039632
239	0xbc1664e2	-0.009179326
240	0xbe37e96c	-0.17960137
241	0xbd0c5e21	-0.034269456
242	0x3dcd2dbc	0.10018489
243	0x3cfa7889	0.030575054
244	0xbd4ea124	-0.050446644
245	0xbd1c2c45	-0.038128156
246	0xbd756780	-0.05991316
247	0xbd2a9b84	-0.041652218
248	0xbd572bdd	-0.052532066
249	0x3db65c60	0.08904338
250	0x3d88a53e	0.066721424
251	0x3ca6a0c0	0.020340323
252	0xbde68e2c	-0.11257586
253	0x3d75b557	0.059987392
254	0x37cfb3cf	2.4760053e-05
255	0xbd63dcde	-0.055630557
