hnn_models/checkpoints/hnn_cr3bp_l1_halo_finetune_v3.pt (torch, 539109 bytes, 9 tensors)

state_mean f4 [6]
00000000: e74b ad3e c7a2 ca3c 0a2a bfbc c981 d7bd
00000010: 8dcc b23e 7218 22bc
0.3384697 0.024735821 -0.023335475 -0.105228014 0.34921685 -0.0098935235

state_std f4 [6]
00000000: c77b 093f 69f7 aa3e c8cc 4b3d 61da 423f
00000010: 100e 5c3f 2c20 e43d
0.53704494 0.33391884 0.04975584 0.7611447 0.8595896 0.11138949

net.0.weight f4 [256, 6]
00000000: e7bc 943e 2241 d6bd 4d89 4fbe cf96 b8be
00000010: 8c6a f1be 285a 733c 122b 843e 4c6c 773e
00000020: e606 9c3d 3499 71be 453e 863e 9be6 98be
00000030: c3a3 963e 5636 c4bd 43db b33e 9122 203e
00000040: 87f2 af3e a9ce 453e bd56 2c3f 4d2f 4fbe
00000050: 7880 0b3e 8492 d9b8 89f3 763d a5f5 bcbc
00000060: b056 ed3e be9e 86be 2a83 873e af9e b3bd
00000070: e2c8 d13e 2c11 473e dffb 063f 4cf4 7abe
00000080: 9972 8e3e 1f61 c93d f378 be3c 72b5 963d
00000090: ef6c 0f3e 2aea d63e 262f 96be f458 bebe
000000a0: 765b 9b3e 25ea c6be bf86 adbe afd4 ea3e
000000b0: b87c 933e 1a48 4d3e 5805 adbc 0846 ac3d
000000c0: 669a d9be cc5c c33e e084 bf3e eef2 a2bc
000000d0: 803d cbbd e8cb 66be 3fc1 95be 06eb 593e
000000e0: 8c1e e4be e774 5abd 529b 5c3e 9758 59be
000000f0: 9099 283f eadb 32be 6cc3 a63e 7b1c 6b3e
00000100: c292 f9bd 42a5 85bc 6aa0 14bf c720 32bf
00000110: 86cb 7fbb 3487 cbbd 149d d83b 580f 2bbd
00000120: ec58 203e a180 5ebe 2985 1bbe 399d 99be
00000130: ee3b 93be 347f 183e f591 91bd 8036 f63d
00000140: 0552 c23e 53c0 e0bd 311a b53e 2512 28be
00000150: ebd6 883e 9cf6 08be 7e90 7dbe 34c2 293e
00000160: 7f2a 78be 1fbe 26be ca9b a4be 1a79 253e
00000170: 70e3 0dbe d4cd 96be d15c 013e b622 5bbe
00000180: fe74 8e3e bf25 d5bd 8706 023d 52ef e63d
00000190: d71b 353e c819 61bd 3043 123f 3f16 f33e
000001a0: 0272 82be 2f42 213e ee64 45be 87c3 3bbd
000001b0: 2f7e da3e 51e6 a83e 5e6f 1d3b 56d7 953e
000001c0: 12ed 0bbc a843 22be 59dd 7dbc e0f8 f83d
000001d0: c4af 653e d1ae 45bd 9e2c e5be 627d cd3d
000001e0: 34d2 b23e 6a42 d53d 9cb9 b1be a296 a03c
000001f0: c058 a3bd 96c1 32be 38c3 fcbc ba21 f2bb
00000200: 84a8 cbbe 2303 ae3e 6385 debe 71bd 97be
00000210: db6f 7d3e a39d 08bf 6a7f c03e a03a c0be
00000220: ca16 30bd 0b16 afbd 73b5 0c3f 7a38 bdbe
00000230: aed7 a13e 3a28 3f3b 8f79 e4bd e681 45be
00000240: a939 cbbe dbf6 233e 0840 5e3c a285 5b3e
00000250: 5aa5 ba3e 343b 3e3e b047 3cbe 9c5c c4be
00000260: f71e ccbd 6a53 bdbe d282 4bbe 20dd a63e
00000270: 0ace cb3e 7b2b 983e c40a 003e 4aa9 a7be
00000280: f46f 1f3e 0ed5 573d 6a64 dfbe 2edd d9bb
00000290: 930d 5abe d17e 343e 1ef4 af3e fdbe 7c3e
000002a0: b98a c3be 7246 e83e 1db0 32be 441a 00be
000002b0: e4dc 37be bee4 77be 0871 3a3e 5df2 bdbe
000002c0: 4b6f adbd bf14 ce3e f7fb 85be fda0 b4be
000002d0: a177 19bd e596 c73e 45b1 1bbe d45b 28be
000002e0: 89c8 92be 651c a3be e189 62be 9a53 ad3e
000002f0: 9b8f 6abe 3125 ddbe bcc2 ce3e d21c 1bbe
00000300: cf4a b23e c436 873e e5b8 11bd 56bc 473e
00000310: 77cc 82be 537d 2f3c d4f5 8e3b 6d85 ffbe
00000320: 6c0f b43e 5306 0d3e 1c3e 74be 685f c5bd
00000330: f970 1fbf 0bb2 32be 5750 e73d baed c63c
00000340: b1c4 383e 9e8a b3be 3469 27bc d280 3f3e
00000350: 6fb0 333c 5c9b 3d3e 6bb3 f4be 7699 a2be
00000360: 1de6 843d a132 29bf 07b9 533e ed12 a3be
00000370: df2c 4c3e 2472 f73d d089 2abd c840 bebe
00000380: 0f86 ac3d 9585 aa3e 284c 3dbe 1627 7c3e
00000390: 4981 cf3e a66a a23c 56cc 4ebe 68f4 36be
000003a0: c0db 053d 7d4d e5bd 9de1 b43e ffad 913e
000003b0: 33f4 c63e 242d 36be 7805 323e 517f 923e
000003c0: aff6 d33c e78f f3bd 2003 013e 0170 6d3e
000003d0: 7f71 8dbe fd3a 1dbb bb7c ad3d dd60 a73e
000003e0: 864a 8ebe 82a9 cb3e b874 313e db7a 973e
000003f0: 9d2a cebe be3f f1bd a96f aabe 0631 c03e
0.2905037 -0.10461642 -0.2026722 -0.36052558 -0.471516 0.014853038 0.2581411 0.24162406
0.07618503 -0.23593599 0.26219383 -0.29863438 0.29421815 -0.09580676 0.3512822 0.15638186
0.3436472 0.19317116 0.6731985 -0.20232888 0.13623226 -0.00010374657 0.060290847 -0.023066351
0.463552 -0.26292986 0.26467258 -0.08770501 0.40973574 0.19440144 0.52728075 -0.24507254
0.27821806 0.098329775 0.023251032 0.07358827 0.14006399 0.41975528 -0.29332846 -0.3717724
0.30343217 -0.38850513 -0.33891866 0.4586539 0.2880609 0.20047036 -0.021120712 0.08411795
-0.4250061 0.38156736 0.37406063 -0.019891229 -0.099238396 -0.22538722 -0.29248998 0.2128106
-0.44554555 -0.053334143 0.21543625 -0.212252 0.6585932 -0.17466703 0.3257097 0.22960083
-0.12186195 -0.016314153 -0.5805727 -0.69581264 -0.0039031222 -0.09937897 0.006610522 -0.04176268
0.15658921 -0.21728756 -0.15187515 -0.30002764 -0.2875666 0.14892274 -0.07107917 0.12022114
0.379532 -0.10974183 0.35371545 -0.16413172 0.2672647 -0.13375324 -0.2476215 0.16577989
-0.24234961 -0.16283463 -0.32150108 0.16159478 -0.13856292 -0.2945391 0.12633063 -0.2139996
0.27823633 -0.1040759 0.031744506 0.112761155 0.17686401 -0.054956228 0.5713377 0.4747791
-0.25477606 0.15747903 -0.19276783 -0.045840766 0.42674395 0.32988217 0.002402268 0.2926585
-0.008540409 -0.15846121 -0.015494668 0.12156844 0.2243033 -0.04826242 -0.44760603 0.100336805
0.34925997 0.10413058 -0.3471192 0.019603077 -0.07975912 -0.1745666 -0.030854806 -0.0073892744
-0.39777005 0.33986768 -0.4346114 -0.2963672 0.247497 -0.53365535 0.3759721 -0.37544727
-0.042990483 -0.08549126 0.5496437 -0.3695715 0.31609863 0.0029168264 -0.11155998 -0.19287834
-0.3969243 0.16012137 0.013565071 0.21437696 0.36454278 0.18577272 -0.18386722 -0.38351905
-0.099668436 -0.36977702 -0.19874123 0.3259058 0.39805633 0.29720673 0.12504107 -0.32746345
0.1557005 0.05269342 -0.43631297 -0.006648681 -0.2129424 0.17626502 0.34365934 0.24682231
-0.38191774 0.45366246 -0.17449994 -0.1251002 -0.17955357 -0.24208352 0.1820718 -0.3709897
-0.08468493 0.40250203 -0.26168796 -0.35279074 -0.037467603 0.3898231 -0.15204342 -0.1644128
-0.2866862 -0.318576 -0.22122909 0.33852845 -0.22906344 -0.43192437 0.40382946 -0.15147713
0.348227 0.2640897 -0.03557672 0.19505438 -0.2554662 0.010711032 0.004362801 -0.49906483
0.35168016 0.13771944 -0.23851818 -0.09637338 -0.6228176 -0.1745073 0.112946205 0.024283279
0.18043782 -0.35066694 -0.0102179535 0.18701485 0.010967358 0.18516296 -0.47793135 -0.31757706
0.06489203 -0.6609288 0.20676051 -0.31850377 0.19938992 0.120823175 -0.041635334 -0.371588
0.08424007 0.3330504 -0.18486083 0.24624285 0.40528324 0.019826245 -0.20195135 -0.17866671
0.032680273 -0.1119642 0.3532838 0.2845306 0.38858184 -0.17790657 0.17384899 0.2861276
0.025874464 -0.118926816 0.12598848 0.23187257 -0.27625653 -0.0023991459 0.08471056 0.32691088
-0.27791232 0.39777762 0.17329681 0.2958592 -0.40266886 -0.11779736 -0.33288315 0.37537402

net.0.bias f4 [256]
00000000: be59 0cbf a663 6fbe f71d 813e ce05 943e
00000010: 746c d5be ad5b 18be 5307 7f3d b025 c2be
00000020: efac 323c 0c70 dabe 4535 b7bc e657 7dbd
00000030: ce5c ca3d 66c9 d5be 72b4 6cbe 51a1 8abe
00000040: a0f2 f13e 28cf 293e 6055 2bbd 1b18 1a3e
00000050: 964e 4fbc 964e a9bc 2df0 c43e 0b2b ca3d
00000060: 3a5e b3be fcfa 97be 30ed 0c3e 61e9 57be
00000070: 0988 69be 386f 32bd d6ab 3fbe ae0c edbe
00000080: dd62 a93e fd99 343b 8833 cc3e 0f46 763e
00000090: 7a94 d63e ab9b 7bbe e070 ae3e 44bc bb3e
000000a0: 68d3 b3be 8656 c0be 16f4 dcbe 3c22 213e
000000b0: ec10 ab3e 7344 09be 6d0e a9be f32a 933e
000000c0: b4b4 f23e 51c2 d8bb 14c8 fa3e 627a e2be
000000d0: 62d8 b2be 0220 933e 2cd2 9c3e 41cf 0ebe
000000e0: 5205 8ebe d039 e0be cf89 76bd 8468 42be
000000f0: 3365 c6bd 9baa 86be b747 e23c 094d b83e
00000100: 46cd bd3e b00f 7ebe ffac e23d b22b 8f3c
00000110: 036b 16be 944a f23c f192 95bd de73 873e
00000120: 1ac3 8ebe 9705 22be 7e8b 38be e057 dabe
00000130: 3811 75be d458 8ebe 115c 2e3e 5e97 503e
00000140: c750 11be 7666 c8bd a6bc 1ebc 031b 58bd
00000150: 4441 d13e 35b2 af3e b856 d93e 5cce cd3e
00000160: c08b 9bbe 45e4 2f3e 2314 ae3e c765 b3be
00000170: 9115 33be a9f0 83be 2781 d33e 7f18 c93e
00000180: aabc e9be bd42 c0be 16fa 03be a68b bbbe
00000190: b102 ef3e f340 303e 19f6 943e 871e a4bd
000001a0: 9b90 98be 7808 1cbe 3fd9 3b3e 8071 243e
000001b0: 2244 5b3e 9776 373c b0e5 433e b6d1 8fbd
000001c0: b196 b83e c3b8 97be 7add f43e a778 893e
000001d0: b187 f4bd 9e2a 583e 5def c63d fe6b a03c
000001e0: 7d42 a7be 5f43 073e cad5 06be 0c81 e93e
000001f0: 111d be3e b2db 123e 36a1 b6be 7812 00be
00000200: 54d7 553d 27b6 c93e 121a 943c 2a3a e1bc
00000210: 47a1 af3e fce5 d33e c71a 963e e086 b0be
00000220: 45f8 91bd bdf0 85be 759c 99be 5f33 ad3e
00000230: e823 893e 8257 33be c2c2 b1be 7c55 983e
00000240: 007a 743e 9fe8 8bbd 1ce5 05bf 5cf4 b33e
00000250: 3f3c 793e c1e9 85be 3c7a ed3d 035b aa3e
00000260: e674 9e3e 00cf 563d 7d70 a5bd 1cee bd3e
00000270: 665b 92be 4fb2 863c e49c c5bd e1e8 ec3e
00000280: 862c 13be 09d1 cd3e 6e98 203e 12ce a43e
00000290: 3fa0 e2be 5dfa 4fbe 4c5b dd3e 0264 e1be
000002a0: 5076 d4bc 3768 c63e 68c5 2fbe 19ab d9be
000002b0: 2f6b 153e 36c0 90bd c7a5 a53e d669 45be
000002c0: c99f 55be 0227 9cbe 6afe 573e b53d 14be
000002d0: b877 bbbe 1325 0fbe 1165 a03e af73 cd3e
000002e0: 18b6 ef3e c361 9fbe e13e eb3c 8f12 04bd
000002f0: 432c f5be 4852 c9be ce69 753c c08b a6be
00000300: 97ad e43e a9c7 0d3d cd59 263d c1f6 683e
00000310: 89be 813e 3343 143e 0903 f23e 7008 bc3e
00000320: f59c 66be 07cc a53d 7994 7c3d b784 493c
00000330: 4dbf 59be c61a 92be 0cc0 d6be 182f 13be
00000340: 0390 9fbe f651 ccbd 01b1 bb3d 7cad 9fbe
00000350: 1e69 023e 96ac 1c3e 2046 f43e c9e0 f23e
00000360: 246e 1ebe 6418 133d fbfc e6be 11e5 53be
00000370: 4e81 02be 0fbb 30be c39b 913e f9f8 cd3e
00000380: 391c 69be 357d 29bd 3010 ddbd 3e62 163e
00000390: 7253 e53e 53d9 d4be 3fe9 b83e 79d9 b53e
000003a0: dae9 b63e 5a61 ff3e 716b da3e 42a0 bcbe
000003b0: a4d4 c4be c0ea d1be 73f2 cc3e 0376 793e
000003c0: e225 d9be cac5 c13e ee73 d7bd a0e7 10be
000003d0: 85e6 293e 17d4 653e 21ff 3cbe a32e 5d3e
000003e0: 2fdd 6a3e b31e 14be 88ed b83d 0f48 b33e
000003f0: ac61 a03e fa6a 37bd d65d 243e 3434 be3e
-0.54824436 -0.23377857 0.25218174 0.2891068 -0.41684306 -0.14878722 0.062262844 -0.37919378
0.010905488 -0.4266361 -0.022364268 -0.061851405 0.09880982 -0.41755217 -0.2311571 -0.270762
0.4725542 0.1658293 -0.041829467 0.15048258 -0.012653014 -0.020667356 0.3846449 0.09871491
-0.35032827 -0.29683673 0.13762355 -0.2108512 -0.228058 -0.043563098 -0.18717894 -0.46298736
0.3308324 0.0027557604 0.39883065 0.24050163 0.41910154 -0.24571101 0.34070492 0.36667073
-0.35122228 -0.37566012 -0.43154973 0.15735716 0.33411348 -0.13405018 -0.33018818 0.28743705
0.4740349 -0.006614961 0.48980772 -0.44233996 -0.34930712 0.28735358 0.30629098 -0.13946249
-0.27738434 -0.43794107 -0.06019002 -0.18985182 -0.09687271 -0.26302037 0.027622087 0.35996273
0.37070674 -0.24810672 0.11068153 0.01747689 -0.14689259 0.029576577 -0.073034175 0.26455587
-0.27883226 -0.15822445 -0.18021962 -0.42645168 -0.2393235 -0.27802145 0.17027308 0.20370242
-0.1419097 -0.09785168 -0.009688532 -0.052760135 0.40870106 0.3431565 0.42448974 0.40196502
-0.30380058 0.17176922 0.33999738 -0.35038587 -0.17488696 -0.25769547 0.41309473 0.39276502
-0.45651752 -0.37550917 -0.12888369 -0.3662998 0.4668174 0.17212276 0.29094008 -0.08013635
-0.29797825 -0.15237606 0.18344592 0.16058922 0.2141271 0.011197708 0.19130588 -0.07022421
0.36052468 -0.2963315 0.47825223 0.26849863 -0.119399436 0.21110007 0.09713624 0.019582745
-0.32667914 0.13209294 -0.13167492 0.45606267 0.3713155 0.1434162 -0.3566987 -0.12507045
0.052207306 0.39396784 0.018078838 -0.027493555 0.34302732 0.41386402 0.29317304 -0.344779
-0.07127432 -0.2616023 -0.3000218 0.33828256 0.26785207 -0.1751385 -0.347189 0.2975272
0.23874664 -0.06831478 -0.5230272 0.3514737 0.24339388 -0.26154903 0.1159558 0.3327256
0.3094856 0.052443504 -0.08078096 0.37095726 -0.28585356 0.016442446 -0.09649065 0.46271423
-0.14372453 0.40198544 0.15683147 0.3218847 -0.44262883 -0.2031035 0.43233716 -0.44021612
-0.025935322 0.38751385 -0.17165148 -0.4251335 0.14591669 -0.07067911 0.3235304 -0.19278654
-0.20861734 -0.3049851 0.21093145 -0.14476664 -0.36614776 -0.13978986 0.31327108 0.40127322
0.46818614 -0.31129274 0.028716506 -0.03224426 -0.47885332 -0.39320588 0.014978839 -0.32528496
0.4466369 0.03461424 0.040612984 0.22750379 0.2534068 0.1447876 0.4726794 0.36725187
-0.22520812 0.08095556 0.061665032 0.012299708 -0.21264382 -0.28536052 -0.41943395 -0.14373434
-0.3116456 -0.0997657 0.0916462 -0.31187046 0.12735412 0.15300211 0.4770975 0.47437122
-0.15471703 0.035911933 -0.45114884 -0.2069285 -0.12744638 -0.17258857 0.2843915 0.40229014
-0.22764672 -0.041379172 -0.10794103 0.14685914 0.44790226 -0.41572055 0.36115453 0.3551748
0.3572529 0.4987896 0.42660096 -0.36841017 -0.38443482 -0.40999413 0.40028724 0.24361424
-0.42411715 0.37846214 -0.10520159 -0.14150858 0.16591842 0.22444187 -0.18456699 0.21599822
0.22935937 -0.14464836 0.090296805 0.35015914 0.31324518 -0.044779755 0.1605142 0.37149203

net.2.weight f4 [256, 256]
00000000: f8da bcbd 81d1 433d 7459 ccbc a9ef a2bd
00000010: 86ec 733c c652 d0bc 09ce 1b3c 0f39 b1bc
00000020: 1e60 7a3d 6936 403c 1cfe 3dbd 377f 713d
00000030: 8297 d93c b2f5 8ebc c36d 8f3c 78e0 503d
00000040: 27c6 df3c 7699 52bc 9459 23bd c945 4bbd
00000050: d29b 1d3d 1549 06bd cdc0 87bc d02a 1a3b
00000060: f205 053c 13a0 073d fa3b 55bd 2494 943c
00000070: 63e2 12bd 1067 53bd 7b11 be3b a663 14bd
00000080: 5878 513d f4bf b1bc a276 b0bc aa73 78bc
00000090: 5a63 333d 8df9 c739 4be6 0bb9 f5de 373d
000000a0: d293 333d 0a35 5c3c cdc0 18bd ec0b ebbc
000000b0: bec4 85bd 2b54 b7ba 3b1b 68bc e1ad c83c
000000c0: 24a9 3bbd 7584 fd3a 44fd 073d 14f0 10bc
000000d0: 6609 013c b98a 4fbc 4fb7 783d 7d22 823d
000000e0: b36d f13c 833f 27bc 9630 a13d 7510 69bd
000000f0: a619 40bd 2c26 05bd 5c52 373d 40ae f43c
00000100: 6fd7 1cbb bb0c 8fbb adcf c6bc b4b5 91bc
00000110: 6157 183d d618 663a 7184 17bd 92a6 a2bb
00000120: d730 513d ff1a bb3c 863c 273d fbd1 b73c
00000130: 91ff 4cbd 81be 2d3d 90d5 e8bd 33a6 07bd
00000140: 9c6c 5d3c 95a6 35bd 4d4f 4fbd 0f04 fbbc
00000150: f611 07bd 2a65 e8bc 258f b9bb 1003 66bc
00000160: f9c9 773d ae84 23bd 0b67 aabc 77aa 833d
00000170: d22a fe3b 2fcf 733c cee1 aebb 010c 973b
00000180: a2ff bebd b22e 423d daa4 543d 9628 413d
00000190: 0c61 993d f230 293d de66 69bd b772 01bd
000001a0: cfd7 223c 9c5e 91bc 3c88 6b3d 28a6 d33c
000001b0: 5b2e 653d 5594 543d f931 66bd dce2 4abd
000001c0: 6d93 b5bc cdc0 c8bd a881 953d 805e b83c
000001d0: c77b 1d3d 0de4 83bd 68c7 823b ef8a 38bd
000001e0: 5abe 7dbc 55c9 8b3c 2a4c 4bbd 8acb da3c
000001f0: 9fb7 b4bc 47ab 3dbd 655f 13be 5926 1cbc
00000200: e8b7 143d 6810 bcbb dc7e 1a3d 5cbb beba
00000210: 8fd5 35bd 6cc4 183d 743f 60bd e865 353d
00000220: ddfb dcbc c078 4d3d a195 04bd 7ae5 3ebd
00000230: fd31 90bd 1f25 713c 492b 803c cf87 2dbd
00000240: 0bf2 b9bc 0d73 113d f370 173d 55f0 e53c
00000250: 3a86 26bd 7787 14bd e007 39bd b278 0c3d
00000260: 28c7 19bd 78db 623d 952e 953d 5924 23bc
00000270: e145 babc 77a5 2fbc 9d65 1e3d e3b7 d7bc
00000280: e001 7b3d 7b4e ad3c 44c3 803d 5547 dd3c
00000290: f8e0 49bd 6cf6 f539 9183 013d f2b3 823d
000002a0: 2376 2fbd a1f6 ec3c e87f 3e3d be19 453d
000002b0: 2e2a 2a3d e23a 023c 25fe a9ba 0da5 58bd
000002c0: 4fd5 363d e529 c63b ab6f 03bb d5f5 31bd
000002d0: 0780 95bc 7ec1 a3ba e9e2 5a3d 5169 4ebc
000002e0: 5fd2 46bd 1ea0 5abc 461f 763c 6800 eb3c
000002f0: c206 87bc d1fc c13b 13fd 9c3d 74e3 b83b
00000300: 5b27 3f3d 78ba 343c b8ac 123b 3e17 9cbc
00000310: 39ef 6dbd dd7e 913c bdcd 2d3d da1d 6bbd
00000320: 53dd 313c 4545 ebbb 1d97 ae3c 5548 7e3d
00000330: 9f11 42bc 009f 093c 7a77 c7bb 7d4f 46ba
00000340: be1b 63bc 1cff 203d 86ad f83c 25c7 c33c
00000350: bef8 4c3c f221 75bb bd4f f53c 896e d0bc
00000360: 3be2 ba3c 5ccb 6a3d 92a8 c73c 314d c53c
00000370: 3447 42bd 7cc1 003d 6146 783c b89c 40bd
00000380: f8f6 aebc 1aa8 7bbd b71f 5abc ed0d b73b
00000390: d3a6 723d 62cf 63bc 4c26 993d 9693 0f3d
000003a0: 9efd c83c b82e bd3c c5a3 57bd 1c23 a1bd
000003b0: 6fb8 783d 8531 debc 9609 25bc 0c88 89bc
000003c0: d3e6 7c3c 3ded 893d d458 843a 21b8 663d
000003d0: 8ff6 4fbd 09fa 2b3d 903b ba3c 8a50 58bd
000003e0: 80b1 87bb 57b3 9a3c eadf 7c3c 1c66 cabc
000003f0: 41cc ea3c 63ae aabd a647 ec3b 1be8 6b3d
-0.092214525 0.04780722 -0.024944998 -0.07955868 0.014887935 -0.025430094 0.009509572 -0.021633653
0.06112682 0.011731722 -0.046384916 0.058959212 0.026561502 -0.017451141 0.017508393 0.05099532
0.027316166 -0.012853971 -0.03988035 -0.0496271 0.03847868 -0.03278454 -0.016571427 0.0023524053
0.008119093 0.033111643 -0.05205915 0.018137045 -0.03586043 -0.05161196 0.0058004237 -0.036227845
0.05114016 -0.021697976 -0.021540944 -0.015164295 0.04379592 0.00038142168 -0.00013341864 0.044890363
0.043842144 0.01344038 -0.037293244 -0.028692208 -0.06531666 -0.0013986876 -0.0141666485 0.024496974
-0.045815602 0.0019341843 0.033200517 -0.008846302 0.007875776 -0.012667351 0.06072169 0.06354234
0.029471254 -0.0102080135 0.07870595 -0.05690046 -0.04689946 -0.032507107 0.04475628 0.029868245
-0.002393212 -0.0043655313 -0.02426895 -0.017786838 0.037192706 0.00087775046 -0.03699154 -0.0049637044
0.051071968 0.022840021 0.040829204 0.022438994 -0.050048415 0.042418007 -0.11368859 -0.033117484
0.013514664 -0.044348318 -0.050612736 -0.030641584 -0.032976113 -0.028368551 -0.005662816 -0.014038816
0.06049535 -0.039921455 -0.020801088 0.06428998 0.0077565694 0.014880939 -0.0053369766 0.0046095853
-0.09326102 0.047407813 0.051915027 0.047157846 0.07489213 0.041306444 -0.056982867 -0.03160354
0.009939148 -0.017745309 0.05750297 0.025836065 0.05595241 0.051899273 -0.0562 -0.049532756
-0.022165025 -0.09802399 0.073001206 0.022505999 0.03844812 -0.064399816 0.0039910562 -0.045054372
-0.015487278 0.017063776 -0.049633183 0.026708383 -0.022060214 -0.04630592 -0.14391859 -0.009530627
0.0363082 -0.0057392605 0.03771864 -0.0014551687 -0.04439312 0.037296697 -0.054748014 0.04428664
-0.026975567 0.050163984 -0.03236926 -0.046605565 -0.070407845 0.014718323 0.01564564 -0.042365845
-0.022698423 0.03551011 0.03697295 0.0280687 -0.040655352 -0.036262 -0.045173526 0.03429479
-0.037543446 0.055385083 0.072842754 -0.009957396 -0.022738399 -0.010720602 0.038671125 -0.026332801
0.061281085 0.021155586 0.06287244 0.027011553 -0.049286813 0.0004691364 0.031619612 0.06381978
-0.042837273 0.028926196 0.0465087 0.048120253 0.041544132 0.007948609 -0.0012969418 -0.05289178
0.04463702 0.0060474747 -0.0020055573 -0.043447334 -0.018249525 -0.0012493578 0.053439055 -0.012598352
-0.04854047 -0.013343839 0.015022105 0.028686717 -0.016482715 0.0059200306 0.076654576 0.005642349
0.04666839 0.011030786 0.002238078 -0.019054051 -0.05808947 0.017760688 0.042432535 -0.057401516
0.01085599 -0.0071798884 0.02131229 0.0620807 -0.0118450215 0.008399725 -0.0060872408 -0.0007564945
-0.013861595 0.03930579 0.03035618 0.02389867 0.012510477 -0.0037404266 0.029945249 -0.025443332
0.022812953 0.057322845 0.024372373 0.02408466 -0.047431186 0.03143452 0.015153498 -0.04702446
-0.021357998 -0.06143961 -0.0133132255 0.005586377 0.059241127 -0.013904424 0.07478008 0.03505286
0.024534997 0.023093566 -0.052646417 -0.07868025 0.060722765 -0.027123222 -0.010073086 -0.016788505
0.015435892 0.06734703 0.0010097274 0.056327943 -0.050772246 0.0419865 0.02273348 -0.052811183
-0.0041410327 0.018884344 0.015434245 -0.024706893 0.028661849 -0.08334043 0.0072106896 0.0575944

net.2.bias f4 [256]
00000000: 5ecf b139 fbfa 93bd 5fa8 8b3c bd70 61bd
00000010: c17e 9fbc 3189 d7bb d220 653d 83fb 84bc
00000020: 6e7d 4a3d 8eb3 74bc 05e3 f83c 77cd 1a3e
00000030: 1e75 ea3b 5b6a 09bc 14fb 21bb dceb b3bd
00000040: d638 2dbd 7522 a3bd 6b4a d4bd c1ec 173d
00000050: 33d2 83bc a0dc b7bd 3424 acbd 6a7e e9bc
00000060: ea00 c2bd 951a 92bd d49e c93d 56b0 01bd
00000070: 8e69 d83d 8c81 e7bb 75ea 893d 0bad b33d
00000080: a7bc cfbc f829 d4bd db10 93bd 00df 693d
00000090: 6501 1e3d c8d6 f4bd 040f f5bd 512c 04bd
000000a0: ecc6 4ebd 17c1 08bd b0c8 76b9 bb26 4f3d
000000b0: dd8f bf3d ac2f 03be ec90 2e3d 0130 33bc
000000c0: 6356 563b 98e9 2cbd f0ca ec3d 8f76 54bd
000000d0: 3655 323c 718c b6bd 5849 423d 4051 20bb
000000e0: 9879 0bbd 5d71 90bc f45d f1bd 000a e53d
000000f0: 8ef5 0e3d 8b46 523d 74da b23d 58e9 ff3c
00000100: ea40 3fbb 56c0 0e3e bea2 ebbd 4ca7 ccbd
00000110: fdf8 1b3d 2539 8bbd 70b8 5cbc 1940 06be
00000120: f6fa 83bd 97c0 723c f41b 21bd 912e d7bc
00000130: 2fa3 02bd bdfd 093c 0f2f 973d e6de 9bbc
00000140: 6731 01bd 6264 b93d d935 82bd 38d8 8bbb
00000150: ad6e 783d 35b5 c0bd d815 09bc a422 ad3d
00000160: 3909 d7bb aba6 90bd e736 473d d021 c4bd
00000170: 0538 8e3c 7782 a6bd 31a6 ea3d 2238 8d3d
00000180: 7dac 50bd e6ad 81bd 7c3c 143d 7efe 033d
00000190: 2087 843d dbdb 6dbc b183 75bb dcda ccbd
000001a0: dafb 933d 27ae 3e3d ce27 9e3c ca84 1cbd
000001b0: 464a 4abd 0ab8 d8bd f595 92bd da24 b3bd
000001c0: d9b0 f23c 1b26 6ebc f5aa c73c d9e9 36bd
000001d0: 2297 773c 3ec2 58bb 59f4 d1bd 404e 89bd
000001e0: 339b c4bc 9ca5 83bc cc4b 08bd 4b4f be3d
000001f0: c3ec 8ebd 31b1 183c 6073 7f3c c9b8 4dbd
00000200: 3577 4dbd 2339 ad3d b9f8 09be d3cd 59bd
00000210: ca17 b33d 003f f5bd 3294 d13d ecc3 583d
00000220: 0cb1 41bb a416 433d ca24 49bc 3123 a6bc
00000230: c4c5 0c3c e079 843d 3847 efbc 8cd8 21be
00000240: f958 a4bd 8b8b 2d3d ea84 09bd 7c13 d3bd
00000250: a605 ecbb 0ce4 e2bd 4116 523c 9196 b8ba
00000260: be3b c33b b02f d9bc 17eb 6ebd 4d90 8a3d
00000270: df56 683a d397 edbc ee6f ad3d 93f6 34bc
00000280: f458 153d 665d a7bc ff1a cbbb 694b 87bd
00000290: 6b66 8f3d 7a39 bb3d 3aff 333d e939 a0bd
000002a0: 8726 7b3d d48a 75bd 066e 4c3d 7d81 1cbd
000002b0: 76fc d93d 8e02 9d3d ed8c d73c 206e 323d
000002c0: 230e dabd e6fa 4739 59d8 92bc 4a2f 8f3d
000002d0: 2d71 29bd f32d 103d b980 a53d 1bbc 68bc
000002e0: 7c4a 7dbd 2947 68bd 782c 83bd e135 d73d
000002f0: 4be3 f8bc 989b 823b 6467 0ebd 996b 9fbd
00000300: 37b6 6ebd e7b6 9a3d c93a 303b 95c7 3b3d
00000310: 1986 803d 7f0a 29bc a5fa 763d 59b3 f93b
00000320: cead 4ebb dfc1 05bd 8521 fb3a 3903 7b3c
00000330: abf3 623d 505e 86bd 1f2f 64bd 69d7 3c3c
00000340: 483a f4bd fdd5 6e3d 68c7 0bbd 35bf 243e
00000350: 211c 88bd fe1b 23be 02dd 89bc 386f 0abd
00000360: f159 393d 9305 cb3d 3f90 0fbd a242 97bd
00000370: 44ae 8e3c 2bc8 23bc 78e7 06bb 7c53 98bd
00000380: 42e9 863d cf50 b3bd 9597 5a3c 04d7 29bd
00000390: d8fe 58bc b8d9 e3bd 6698 883c c792 3a3e
000003a0: c014 dbbd 3ee8 00be d2b6 8d3d 9c0c 6a3d
000003b0: fdd6 8e3b 9bb6 883c a8f6 cb3d 4590 09be
000003c0: ce18 143d 5c50 cf3c 2545 be3d 6409 b4bd
000003d0: 5e46 873d 7b76 d93d b723 debb 4694 80bc
000003e0: 53d8 ddbc a72d 91bc 463c a63d 8b9a 4abd
000003f0: ad5e 37bd bc1d 0b3d 61df b4bc d1cc 173d
0.0003391457 -0.07225605 0.017048059 -0.055039156 -0.01946962 -0.006577634 0.055939503 -0.016233211
0.049436025 -0.014935387 0.030381689 0.15117441 0.0071550747 -0.0083871735 -0.0024716305 -0.08785221
-0.04229053 -0.079655565 -0.103657566 0.03709102 -0.016091442 -0.08977628 -0.08405343 -0.028502662
-0.094728306 -0.07133976 0.09844747 -0.031662308 0.10567008 -0.0070650037 0.06734172 0.0877324
-0.025358511 -0.103595674 -0.07180949 0.057097435 0.03857555 -0.11955029 -0.11965755 -0.032268826
-0.050482675 -0.03338727 -0.0002353515 0.050574046 0.093536116 -0.12811154 0.042618677 -0.010936738
0.00327053 -0.04221496 0.11562145 -0.05187088 0.010884574 -0.08913506 0.047433227 -0.0024462491
-0.034051508 -0.01763218 -0.11785498 0.11183548 0.034902148 0.051336806 0.08733073 0.031239197
-0.002918298 0.13940558 -0.1150565 -0.09992847 0.03807925 -0.06798009 -0.013471708 -0.13110389
-0.064443514 0.014816425 -0.0393333 -0.026267322 -0.031893905 0.008422312 0.073820226 -0.019027185
-0.031541254 0.090523496 -0.06357927 -0.0042677186 0.060652424 -0.094095625 -0.008367024 0.08453873
-0.0065623787 -0.070630394 0.048636343 -0.09576762 0.017360697 -0.08130353 0.1145748 0.06895472
-0.050945748 -0.063319966 0.036190495 0.032225125 0.064710855 -0.01451775 -0.0037462527 -0.100026816
0.07225771 0.046552803 0.01930609 -0.038212575 -0.04938724 -0.10581978 -0.07157508 -0.08747263
0.029625343 -0.014535452 0.02437351 -0.04465661 0.015111716 -0.0033074762 -0.10251684 -0.06704378
-0.023999786 -0.01607018 -0.03327541 0.09292468 -0.069787525 0.0093195895 0.015591472 -0.050225053
-0.050162513 0.084581636 -0.13473786 -0.053174805 0.08744772 -0.11974907 0.10233344 0.05292122
-0.002955499 0.047629014 -0.012276838 -0.020280452 0.008592073 0.06468558 -0.029208764 -0.15805262
-0.08024783 0.042369407 -0.033574022 -0.10306451 -0.007202822 -0.11078653 0.012822689 -0.0014082958
0.0059580496 -0.026511997 -0.058329668 0.067658044 0.00088630425 -0.02900306 0.084686145 -0.011045116
0.036461785 -0.020430278 -0.0061982865 -0.0660618 0.070019566 0.09141822 0.043944575 -0.078235455
0.06131604 -0.05994685 0.049909614 -0.038209427 0.10643856 0.07666503 0.026312316 0.043562055
-0.106472276 0.00019071586 -0.017925428 0.069914415 -0.0413677 0.03520007 0.080811925 -0.014205004
-0.061838612 -0.05670849 -0.06404966 0.105083235 -0.03038182 0.0039858334 -0.03476657 -0.077841945
-0.058279242 0.07554417 0.0026890507 0.045844633 0.06275577 -0.010317444 0.060297627 0.007620257
-0.00315367 -0.032655593 0.001915977 0.015320593 0.05540816 -0.065609574 -0.055709 0.011525967
-0.11925179 0.058309544 -0.034125715 0.16088565 -0.0664599 -0.15928647 -0.016829018 -0.033797473
0.04525179 0.099131726 -0.035049673 -0.07385756 0.01741708 -0.009996454 -0.0020584743 -0.074377984
0.06587459 -0.087556474 0.013341804 -0.04146482 -0.013244353 -0.11125511 0.016674232 0.18220054
-0.10697317 -0.12588593 0.06919636 0.05714093 0.0043591247 0.016688636 0.09959155 -0.1343394
0.036156468 0.025306873 0.09290532 -0.087908536 0.06605218 0.106183015 -0.00677916 -0.015695702
-0.02708069 -0.017721964 0.08116965 -0.04946379 -0.044768024 0.033963904 -0.022079172 0.037060563

net.4.weight f4 [256, 256]
00000000: 5058 15bd 7b43 e2bc 190b c43d ce0d 80bd
00000010: f5ef 2b3d 16d9 11bd b7c4 763d 4612 62bd
00000020: 2d3c 26bd efd6 903c 1ea3 60bc b4cf 9c3d
00000030: 806c 0a3d f988 75bd 8812 3d3d 4702 363d
00000040: ebfb 183d 13e9 69bd 319a f9bb 335a 09bc
00000050: a492 46bd 29f9 34bd d68e 813c 325b 01bd
00000060: dc45 dfbc 84a8 fc3c 8424 04bd d2a8 2bbd
00000070: 1dbf 723d 1ae4 4dbd 702f 2e3b d9f1 e13c
00000080: 6ada 2cbd f976 4c3c d3f2 26bc 03c4 2bbd
00000090: 2e80 153d 9d06 3f3c 8765 70bc 7198 51bd
000000a0: f32a 323c 93bf 5ebd 7be5 5d3d 48dd 473c
000000b0: 6d5b 01bc 1c3a 203d 7f6e b73c 983a c53a
000000c0: 9724 3bbd 4cd6 c53c 2538 803c 1a05 453d
000000d0: dc1d 9f3c 719e ae3b e1b8 c0bc 9aa8 7f3d
000000e0: f811 033d 6851 3ebd c175 72bc c106 113d
000000f0: c269 29bc 29de 01bc 4901 1dbd 9a03 3abd
00000100: 62ac 80bd 5838 04bd 4972 1b3d de48 c23c
00000110: c4bc 1ebd 05dc 2ebc a031 343d 2984 c33c
00000120: 5a89 913c 2131 5dbd b0c1 20bd 28c5 093d
00000130: 2f44 613c 1e42 023c 0463 543d 62c4 84bd
00000140: bf24 fa3c 3213 2fbd c9c1 73bd 41a7 083d
00000150: 678d 843d e359 96bd 94e3 09bd 14cd 103b
00000160: b1f2 d93c 0763 1f3d 64dc 2d3d a0aa 86bd
00000170: e2d4 023c bf53 bbb9 c8ae 953d 2eaf 773d
00000180: aadb 08ba b877 8dbd 7307 963d 2ea6 67bd
00000190: 43d7 7f3d b6d6 d93b 3708 aebc a1ed 68bb
000001a0: 32de 0f3d fd80 78bd 8641 0ebd 45df 6abd
000001b0: 0fc7 38bd 718e 5fbd 41e7 69b9 53a8 60bd
000001c0: bc13 eebc dcf0 afbd c3e5 fe3c 1bac 47bd
000001d0: 847c dd3c 5f73 5e3d 5c46 c33c 8dd0 4d3d
000001e0: 9287 4b3b c376 cfbc aee3 bb3b a96b bf3b
000001f0: 7a03 0b3d 12c8 a7bc 983e df3c 1cc7 22bd
00000200: 4068 343d 84ae f7bc 5d82 83bd 1378 e93a
00000210: 5a23 0c3d bca7 83bd 0e70 833d 7a8c 34bd
00000220: f3cc c6bc 05d7 1a3d 0f3a 41bd 35d5 c03c
00000230: 4f72 263d a2ee 343b c502 37bd d405 75bc
00000240: f275 f2bb 5ff2 823d 8019 1e3c e61c 9ebc
00000250: add3 54bb bd7c 953c 3e15 db3c d9d6 ba3c
00000260: 664f ffbb 81db 183d e9e1 30bd 8304 8bbb
00000270: 456b 5ebc c82c 003d d97b 2b3c 6f31 583d
00000280: 1360 06bd 49bc 49bd c105 0a3d b49d 053c
00000290: 3804 803d 3182 333d 8f22 4e3c 79db 99bc
000002a0: eb80 6a3c 2338 3bbd cad0 fdbc 5caa 83bd
000002b0: 321e 483d fa59 c33c fe65 043d b8bc d23d
000002c0: 96bb 3fbd cf00 33bd 4b0c b93c 030b 043d
000002d0: ad45 783d 4deb 933c 0924 7f3c eba3 81bd
000002e0: 6fe7 6bbc 5ab0 5dbc 42c7 2bbd 8df0 8bbc
000002f0: f4aa 493b 2a4f bc37 3912 65bd e023 f7ba
00000300: 3c08 79bd 832c 613d 8ae2 b73c f9e4 f23c
00000310: 4301 d8ba 99d4 20bc f2e5 1c3d 10b1 8bbd
00000320: c287 503d 53ce 47bb 8361 3abd e0d8 ed3c
00000330: b867 bb3c 6ad4 0a3c 7903 f1bc 6241 8e3c
00000340: 501f 283d 4251 053d c5e8 a6bc 9668 ac3d
00000350: b51f 62bd c2d8 bbbc 37e4 273d 0198 be3c
00000360: 9bab 3abd 7ae2 cf3c e436 0f3d 8e56 7fbd
00000370: 09ae 0d3d 6f56 6e3c a682 77bd 1df6 35bd
00000380: 739d 9f3d bbe5 57bc 207c 173d 20d4 183d
00000390: 765d 9e3c 452e 20bc 47ba 53bd 97b6 1c3d
000003a0: e182 99bd 9871 8d3c 1acb dc3c 7d6d 8ebc
000003b0: 5a98 293c 4440 88bc 4832 443d 21a6 33bd
000003c0: 9f6f bcbc 9478 fb3c 7c17 90bb e424 283d
000003d0: a4a6 363d e4ab 3abc b08b c4bb 4705 13bd
000003e0: 70c5 6e3a 3201 133c b75c 43be 868c 3bbd
000003f0: d5ec a1bc fc82 553d 480d 5ebd e852 a5bb
-0.036461174 -0.027620068 0.09572429 -0.06252633 0.041976888 -0.03560742 0.060246196 -0.05519321
-0.04058473 0.017680613 -0.013710765 0.07656804 0.03379488 -0.05994508 0.04616025 0.044435766
0.037349623 -0.057107043 -0.007617258 -0.008383322 -0.04847969 -0.04418293 0.01581518 -0.03158111
-0.027254991 0.030842073 -0.032261387 -0.041909046 0.05926429 -0.050266363 0.0026578568 0.027581142
-0.042200483 0.012479537 -0.01018973 -0.04193498 0.036499195 0.011659292 -0.0146726435 -0.05117077
0.010874498 -0.05438192 0.054173928 0.012198754 -0.007895333 0.039117917 0.022391556 0.001504737
-0.04568919 0.024150036 0.015651772 0.04810057 0.019423418 0.0053289463 -0.023525657 0.06241665
0.03199956 -0.046464354 -0.0147985825 0.03540683 -0.010340156 -0.007926502 -0.038331304 -0.04541359
-0.062828794 -0.032280296 0.037950788 0.023716386 -0.03875424 -0.010672574 0.04399264 0.02386673
0.01776569 -0.05400193 -0.039247215 0.03363529 0.013749166 0.007950334 0.05185224 -0.064827695
0.0305351 -0.042742915 -0.05951098 0.03336263 0.06472283 -0.07341363 -0.0336643 0.0022094892
0.026604982 0.0389128 0.04244651 -0.06575513 0.0079853255 -0.00035729815 0.073087275 0.0604698
-0.0005220721 -0.069076 0.073256396 -0.056554966 0.06246115 0.00664791 -0.021244152 -0.0035542028
0.03512401 -0.060669888 -0.034730457 -0.057341833 -0.045111712 -0.054579202 -0.0002230676 -0.054848026
-0.029062144 -0.08590862 0.031115418 -0.048748117 0.027036913 0.054309245 0.02383726 0.050247718
0.0031056148 -0.025325185 0.0057339286 0.0058416915 0.033938862 -0.020481143 0.027251527 -0.039740667
0.044044733 -0.030234583 -0.06421349 0.0017812274 0.0342134 -0.06428477 0.06417857 -0.04407928
-0.02426765 0.037802715 -0.04717451 0.023539165 0.040636357 0.0027608057 -0.044680376 -0.014955003
-0.007399314 0.06393885 0.009649634 -0.01930089 -0.0032474801 0.018247956 0.026743528 0.022807525
-0.0077914475 0.03731871 -0.043184195 -0.004242481 -0.01357538 0.031292707 0.010466539 0.05278152
-0.032806467 -0.04925183 0.033696894 0.008155275 0.06250805 0.043825332 0.012581482 -0.01878141
0.014312963 -0.045707833 -0.030983347 -0.06428978 0.04885692 0.023846615 0.03232383 0.102899015
-0.046809755 -0.043701943 0.02258887 0.032237064 0.060613323 0.018056536 0.015572556 -0.06330093
-0.01439844 -0.013530815 -0.041938074 -0.017082477 0.0030772062 2.244821e-05 -0.05592558 -0.0018855296
-0.06079887 0.05497409 0.02244689 0.029650198 -0.0016479868 -0.009816312 0.03830523 -0.06820881
0.05091072 -0.003048797 -0.04550315 0.029034078 0.022876605 0.008473495 -0.029420601 0.017365161
0.041045487 0.032548197 -0.020374665 0.08418386 -0.05520602 -0.022930507 0.040989127 0.02326584
-0.045573812 0.025376547 0.034964457 -0.062338404 0.0345898 0.014546975 -0.06042733 -0.044424165
0.07793703 -0.013177331 0.03698361 0.037311673 0.019331675 -0.0097766565 -0.05169132 0.03826007
-0.07495666 0.01726608 0.026952315 -0.017386192 0.010351265 -0.016632207 0.047899514 -0.043859605
-0.023002444 0.030697145 -0.004397331 0.041050807 0.044592515 -0.011393521 -0.0059980974 -0.035893705
0.00091084 0.008972453 -0.19078337 -0.04578831 -0.01976625 0.05212687 -0.054211885 -0.0050452836

net.4.bias f4 [256]
00000000: c298 ab3d 45bc c7bd 3ce7 9bbd 133f c5bd
00000010: e33e 343d ea7a e0bc 6344 a83d 8e46 f3bd
00000020: 7a45 0a3d 6bfc bd3d 6b12 95bc 3ca7 dd3b
00000030: 06f0 d6bb 8736 04bd c417 7b3d 177e ac3d
00000040: 1000 19bd d0e3 afbd c110 9cbc beb6 0b3d
00000050: 1631 8ebc c7a1 13bd 921e 4dbe a5a1 f23b
00000060: aabc af3a db1d e73d 167c 883c b38f d3b9
00000070: a9d1 8f3c fba9 9dbd a05c 093c 8e82 30bd
00000080: db50 3d3b 2b70 2f3d 3ee5 8ebd 0f42 8f38
00000090: 764e 1b3c e715 c03d 1678 ecbd f0cb 54bd
000000a0: b59e efbd a1ab 93b9 a5e6 643d 7219 3b3d
000000b0: cd51 7bbd 4e59 553c d642 c73d 38c2 8dbc
000000c0: 218b ac3c 4085 81bc 4c30 453d 8f87 f6bd
000000d0: 745f 89bd f15b a53d d6ac 843d 2a87 f53b
000000e0: 9df9 7e3d aa58 183d 581e d03d adeb 2a3d
000000f0: 7eff 16bd 0bf2 ab3b 029d 4abe a9ae 9dbd
00000100: e25b 833d c0c0 b73d 9fe0 c53c 674f ab3c
00000110: 27d4 abbd 7309 98bc a4cc 943d 44df ab3b
00000120: 7685 bc3d 04ce 3dbd 30d2 cd3d b01f 863b
00000130: 254e 61bd 8f0b 513d 8e01 9bbb 9cff 8d3b
00000140: 1ab3 f1bc 7a5c ac3d deab 10be 6855 013e
00000150: ec65 c3bc d660 ed3c e8a5 e3bc 6822 863d
00000160: 2394 ef3b 88be d4bd 3479 51bd c1a7 923d
00000170: c656 593d f1c1 b3bc 7c47 d83d 9682 18bb
00000180: c5b8 47bd 10c7 a43d c345 8f3d a6e4 d53c
00000190: 4ab7 bdbd c390 2d3d ec9e aebd ad8d cf3d
000001a0: 7a9f 9cbc 9c1d b5bd da54 35bd 2776 17bd
000001b0: 64c2 abbd 01bd f7be 7519 20bd 4001 e7bc
000001c0: 98b1 30bd e032 97bd 0b8c 02bc df14 89bd
000001d0: 23b1 afbc b941 58bd 0e72 a63d 2b04 ec3c
000001e0: 5881 95bc b249 fc3c 729b 5d3d 556c 4cbd
000001f0: a91e 1bbd 8a20 663d 7e18 e23c 6eb0 183b
00000200: be40 ab3d 2cf3 15be 1b41 eb3d dfa3 b23d
00000210: a5b8 59bd ab2b 8b3d d218 e93d f6b4 4e3d
00000220: 5fa2 babd d226 a0bc 7a76 a9bc 292f 7b3d
00000230: 52a7 9e3d 8372 02ba 0b3c 51bd dbfc 983c
00000240: 11ae 873c 3e9f 8abc fa23 613d 8eeb ee3b
00000250: 7903 89bd aa93 b83d 3e0e 2abd 1191 503d
00000260: 8c8b f43c f642 dbbd 6561 90be 0414 dd3c
00000270: ccd6 8dbd 409b c03c 7c7e 353b f640 7c3b
00000280: fe58 a03d 1fe3 81bd aac4 d1bd e906 983d
00000290: 7d23 51bc 30d4 0e3d 4b99 233c dcb7 5abd
000002a0: ecc5 06bd e653 9bbd 3b71 b4bc 4029 9b3d
000002b0: 6ea4 77bd eb66 d33d 9016 9c3b 3cc1 c7bd
000002c0: b766 4ebd e2f2 c8bd 27ec d7bd 5b49 8d3d
000002d0: 7ddb 943c 6ca0 9bbd e574 363e aa86 aaba
000002e0: 0260 3bbd 32a5 a73d 8581 313d c96b 31bd
000002f0: 7406 63bd d8c6 a4bc 47da 60bd 1b77 373d
00000300: 678e 4fbd d22e b5bd 2f0c 8d3d 6796 25bd
00000310: a392 00be acf4 f23c fa2e 463c f76c 283d
00000320: 7021 68bc 550f 0bbc b37c 853d 4421 08be
00000330: 6db5 003e cb86 58bc d3c0 e0bd bfd2 fa3d
00000340: e934 bfbc c7a0 b23c d3e4 49bc a76f d7bd
00000350: 93b1 05bd ee41 9dbe 8eb3 ae3d 7e36 afbc
00000360: bd46 93bc 34fd 5a3d 548b 83ba b77e 0abe
00000370: e767 dc3a 2704 15bc e23b a4bd f895 48bd
00000380: 94ac 353e 45e6 5ebd 0891 643c 12a4 f13d
00000390: 3b41 07bd afa0 17be c0d5 333c 68fd 4dbe
000003a0: ca81 a1bd df4b adbc bb18 a43d 238c 773d
000003b0: b1fc 0b3d 9b5e 073e 2180 933d 1e6e df3d
000003c0: b369 f03d 20d9 d93c c91c 1ebe 6733 f4bd
000003d0: 479f 2d3d 57d6 003d 0509 49bc 2f75 dbbc
000003e0: d7c2 5b3d 30fd d03c 34f7 0eba 2baf b23c
000003f0: a3dc 8f3c 8858 29bd 9cfe 9fbe 7284 b83c
0.083787456 -0.097527064 -0.07612464 -0.09631171 0.044005286 -0.02740236 0.08216169 -0.118786916
0.033757664 0.092766605 -0.018197259 0.0067643207 -0.0065593747 -0.032278564 0.06130196 0.08422487
-0.037353575 -0.08588374 -0.019050958 0.034109823 -0.01735739 -0.036042955 -0.20031193 0.0074045234
0.0013407667 0.11284991 0.016660731 -0.0004035212 0.017556028 -0.07698437 0.0083839 -0.043093257
0.0028887305 0.04283158 -0.06977318 6.831076e-05 0.009479156 0.093791775 -0.11546342 -0.051952302
-0.11700193 -0.00028165898 0.055884022 0.045678563 -0.06135731 0.01302178 0.09729545 -0.017304525
0.021062436 -0.015810609 0.048141763 -0.120375745 -0.06707659 0.08074177 0.06478278 0.0074929195
0.06224977 0.03719393 0.101620376 0.041728664 -0.03686475 0.0052473596 -0.19786456 -0.076993294
0.0641401 0.08972311 0.02415496 0.020911885 -0.08390074 -0.018559193 0.072655946 0.005245121
0.09205143 -0.04633905 0.10049856 0.004093133 -0.055006165 0.051036414 -0.00473041 0.0043334495
-0.029504348 0.08416076 -0.14128062 0.12630236 -0.023852311 0.028976839 -0.027789071 0.06549531
0.0073113604 -0.103879035 -0.05114098 0.07160903 0.05306127 -0.021943064 0.105605096 -0.0023271195
-0.048760194 0.08045781 0.06995728 0.026110005 -0.09263475 0.042374384 -0.08526406 0.101344444
-0.019119013 -0.08843538 -0.044270374 -0.036977913 -0.083866864 -0.48386386 -0.039086778 -0.028198838
-0.043138117 -0.073827505 -0.007967959 -0.06693434 -0.02144677 -0.052797053 0.08127223 0.028810581
-0.018250152 0.03079686 0.054103322 -0.049908 -0.037871037 0.056183375 0.02759957 0.002329852
0.08361958 -0.14643544 0.11487027 0.08722662 -0.053154606 0.067954384 0.11381687 0.050465547
-0.09113001 -0.019549761 -0.020686377 0.061324272 0.077467576 -0.000497617 -0.051082652 0.018675258
0.016562494 -0.016921636 0.05496595 0.007291264 -0.066901155 0.0901254 -0.04151749 0.050919596
0.029851697 -0.10706131 -0.28199306 0.026987083 -0.06925735 0.023511529 0.0027693799 0.0038490868
0.07829474 -0.06342148 -0.10242589 0.07423193 -0.012764809 0.034870327 0.009985278 -0.053398
-0.032903597 -0.07584362 -0.022026649 0.07576227 -0.060459547 0.103223644 0.004763432 -0.097536534
-0.050390925 -0.09811951 -0.10543089 0.06898757 0.018171066 -0.075989574 0.17818029 -0.0013010104
-0.045745857 0.081858054 0.04333641 -0.043315683 -0.055426076 -0.020114347 -0.054895665 0.044791322
-0.050672915 -0.08846821 0.068870895 -0.040426638 -0.12555937 0.029657684 0.012096161 0.041119542
-0.014168128 -0.008487542 0.06517925 -0.1329394 0.12569208 -0.013215731 -0.10974278 0.12247228
-0.02334066 0.02180518 -0.012322622 -0.10519343 -0.03264005 -0.30714363 0.08530341 -0.021388289
-0.017978067 0.05346413 -0.001003603 -0.135249 0.0016815633 -0.009095228 -0.08019234 -0.048971146
0.17741615 -0.05441882 0.013950594 0.11798872 -0.033021193 -0.1480739 0.010976255 -0.20116198
-0.078860834 -0.021154342 0.080125295 0.06043638 0.034176532 0.13219683 0.07202173 0.10909675
0.117389105 0.026592791 -0.15440668 -0.11923867 0.042388227 0.03145441 -0.012270217 -0.026789276
0.05365261 0.025511354 -0.0005453706 0.021812042 0.017561262 -0.041344196 -0.3124894 0.022524092

net.6.weight f4 [1, 256]
00000000: 0912 edbc 1bdf 35bd b47a 263d f35c 3c3c
00000010: 62a2 f73c 1088 173b 7923 1abc dfbb a63d
00000020: 7488 fdbc 7a34 4bbd a009 f7bc c6c4 11bc
00000030: ddbe babb 4c74 4e3d 1a53 d6bc 544a 96bd
00000040: 987e 583d a9d7 73bc 7b60 8a3c 7621 d7ba
00000050: ddf6 9c3d b7b9 42bd fe96 b2ba 6993 4a3d
00000060: dcde eb3c ad58 21be 1e51 53bd 8347 78bd
00000070: 43b3 293d fb2b d33a 49e9 aebd f480 59bd
00000080: 828f dcbb 5ec3 40bd a851 2e3d f03b 30bd
00000090: 8d0f 563d 5f56 66bc 16d4 5cbd 83f7 fe3c
000000a0: 9083 4a3d fa66 1a3d ce42 2abc de72 29bd
000000b0: ea2d c13c 5bfa 5f3c a14b 44be acb8 66bd
000000c0: ee0c 90bc 1476 1e3d 6b7a 273b d49b a93d
000000d0: f1c6 0238 cf70 1fbd 240b 49bd 1a3c 39bd
000000e0: 8bbf 2f3d af31 5abd 473c 11bc 280e 22bd
000000f0: 9ea9 503c cbd4 d7bc 8fe8 bfbd 358c 893d
00000100: 9578 1cbd c480 32bd c6f2 27bd bdc0 65bd
00000110: f6b0 eb3c 3e99 8e3b 9603 83bc b3c2 273d
00000120: 3753 cdbc fb6c b23d b8c6 783c 9a97 debc
00000130: 6205 513d e127 11bd 7750 ee3d e5dd 24bc
00000140: 0ccc f93a 29f6 96bd e390 5dbd c098 9a3d
00000150: 4f67 1b3d 77b0 363d 0a08 3fbd 68c8 14bd
00000160: 9cea 79bc 656d 903d c97b 21bd d147 88bc
00000170: 2844 acbc 25d8 92bd 632a 85bd b0f4 89bd
00000180: 673f 9a3c 875f b7ba bc06 89bb ea69 c0bd
00000190: 015b ad3d ef4c 4dbd 987f 9fbd 6a9d 9ebc
000001a0: 0d26 803d 8106 213d 124a 453d 4af5 9f3d
000001b0: b8db 573e f0d9 7d3a d5d8 5c3d 7799 adbc
000001c0: 46e7 523c 2d11 403d 24f1 593c 3574 0a3d
000001d0: 0f2a deba 40c1 9e3d f747 24bd 5690 2abc
000001e0: 3ff1 c9bc e70f 173d 02ab 38bd 7d51 493d
000001f0: 1ddd d5bd baa2 77bd 7bbe 29bc be3e 11bd
00000200: 5e6a 06bd 159a 2d3d bc74 a4ba 80c8 7fbd
00000210: f567 5e3c e6ff 8ebd 4645 9abd 2255 5dbd
00000220: bc6b 053d 00e8 943d 9af6 c13c 3002 48bc
00000230: 39f9 c8bd 9ec1 273c e8de 033b 9316 60bc
00000240: 76c8 56bc c61a 99bc 9b2a 06bd 7d6f e6bc
00000250: 439a 8ebd 6fad e2bd 4ed6 173d 8e6c 46bd
00000260: 43d6 4abd a4b9 b43b 6e14 09b7 71aa 613d
00000270: 8173 873d 479a 833d 8d70 45bb b6be 7f3d
00000280: ca68 32bc 834e 62b9 ff2d 963c 1627 99bd
00000290: 0394 1e3c 451a 5abd 79b4 38be 09dd a2bc
000002a0: 1ac8 bd3c f825 8339 8e38 843c d488 cc3c
000002b0: 63f0 bf3d 111d 97bd 0807 bcbc 4795 64bd
000002c0: ea7d d93d e1e6 263b e2bf 48bd 2d12 7bbc
000002d0: 34da 38bd d9b5 67bd 1561 10ba 5a3b 3cba
000002e0: 2e6d 0c3d f063 54bd 0636 983d ed85 a33d
000002f0: 0dc1 47bd cb50 98ba 2266 51bd 3b13 01bd
00000300: 0b2c 073e 36df 4c3d 798e a5bd b1de 203b
00000310: 8fac c63d b6a3 14bd 685c fe3c 62e3 2bbd
00000320: 5004 543d 21b2 033e 2a3a e8bc 5ab1 0a3e
00000330: 1fdd 9abd bf62 183d 406f ae3c 31b1 f2b9
00000340: d8b7 a43d ee4f 363c 86be 69bc 5cc2 c4b7
00000350: 3d67 75bc bb33 94ba 31d9 6a3d 2f38 993d
00000360: b191 b1b9 aa3d 7bbc 4b10 aebd 3bdc b43d
00000370: 699d 343d 4e9a 853d 900d 833d bbce 013d
00000380: 2be0 da3d 8ede 903c b416 d83c 2e94 8fbd
00000390: f99e c13c bda1 803d 483f 303e c88c 1ebd
000003a0: 8606 90bc 976d 26bd 5c18 11bd c996 6fbd
000003b0: 3835 54bd c1dd d3bc 4341 cdbc f0fe 02bc
000003c0: 01de 36be 4442 0bbd 7d00 cc3d fda1 e83c
000003d0: edd3 4bbd 1e49 1bbd 2f89 74bd c085 26bd
000003e0: 2606 54bd febc b53d 1bcf 883d 3ed9 a33c
000003f0: 0f18 e5bd c21c 743d 5ea2 1dbc ddae 60bd
-0.028939264 -0.044402223 0.040644363 0.01149677 0.030228797 0.002312187 -0.009407871 0.08141302
-0.030948855 -0.049610592 -0.030155957 -0.008897012 -0.005699022 0.050403878 -0.026162673 -0.07338396
0.052855104 -0.01488296 0.016891709 -0.001641317 0.07664273 -0.047540393 -0.0013625321 0.049456988
0.028792791 -0.15756483 -0.05159103 -0.060615074 0.041430723 0.001611113 -0.08540589 -0.053101495
-0.0067309747 -0.047061317 0.042558342 -0.04302591 0.052260924 -0.014058678 -0.0539132 0.031123882
0.049441874 0.037695862 -0.010391904 -0.04136931 0.023581464 0.013670529 -0.19169475 -0.05632846
-0.01758429 0.038686827 0.0025555145 0.08281675 3.1179694e-05 -0.038925942 -0.04908289 -0.045223333
0.04290728 -0.05327004 -0.008864469 -0.03956428 0.012735752 -0.026346585 -0.09370529 0.067161955
-0.038200933 -0.04357983 -0.04100301 -0.056092013 0.028770905 0.004351764 -0.01599292 0.040957164
-0.025064094 0.087121926 0.015184097 -0.027171899 0.051030524 -0.035438422 0.11636441 -0.010062669
0.0019058003 -0.0737117 -0.054093253 0.07548666 0.03794032 0.044601884 -0.046638526 -0.036323935
-0.015253689 0.07052115 -0.03942469 -0.016635807 -0.021028593 -0.071701325 -0.06502225 -0.067361236
0.01882906 -0.0013990261 -0.004181711 -0.093952015 0.08464623 -0.050122198 -0.077880085 -0.01936217
0.062572576 0.039312843 0.048166342 0.07810457 0.2107991 0.00096836593 0.053917725 -0.021191342
0.012872523 0.04689138 0.013302121 0.03380223 -0.001694979 0.07751703 -0.040107694 -0.010410389
-0.024651168 0.0368804 -0.04508496 0.04914998 -0.10442565 -0.060457923 -0.0103603555 -0.035460226
-0.032816283 0.042383272 -0.0012546997 -0.06244707 0.01357459 -0.069824025 -0.07532744 -0.054036267
0.032573447 0.07270813 0.02367716 -0.012207553 -0.098131604 0.010239033 0.0020121876 -0.013677257
-0.013109317 -0.018689524 -0.032755475 -0.028129334 -0.06963017 -0.11068236 0.03706961 -0.04844337
-0.049520742 0.005515294 -8.170593e-06 0.055094186 0.066138275 0.064259104 -0.00301269 0.062437735
-0.0108892415 -0.00021582287 0.01833248 -0.07478158 0.009678843 -0.05324771 -0.18037595 -0.019880788
0.023166705 0.00025014556 0.016140249 0.024967588 0.09372022 -0.07378591 -0.022952572 -0.055806424
0.10619719 0.0025467204 -0.04901112 -0.015324158 -0.04512997 -0.056569908 -0.00055076304 -0.0007180475
0.03428381 -0.05185312 0.07432179 0.07984529 -0.048768092 -0.0011620758 -0.051122792 -0.03151248
0.13200395 0.050017558 -0.08083815 0.0024546797 0.09700882 -0.03628894 0.031049922 -0.041964896
0.051761925 0.1286092 -0.028348047 0.13544217 -0.07561707 0.037203547 0.021293283 -0.00046289855
0.08042878 0.011127455 -0.014266616 -2.3455526e-05 -0.014978227 -0.0011306921 0.057336036 0.07481419
-0.0003386862 -0.015334526 -0.084992014 0.08831068 0.04409543 0.06523572 0.06399071 0.031691294
0.10687288 0.017684247 0.026378013 -0.07010685 0.023635374 0.06280849 0.1721164 -0.03870848
-0.017581236 -0.040631857 -0.03542362 -0.05849341 -0.051808566 -0.025862576 -0.025055533 -0.007995352
-0.17858125 -0.033998743 0.09961031 0.028397555 -0.049762655 -0.037911527 -0.05970114 -0.040654898
-0.051763676 0.08873938 0.06680127 0.02000105 -0.111862294 0.059597738 -0.009621231 -0.054854263
